exp/test/checkpoint.pth.tar (torch, 47003 bytes, 5 tensors)

x2h.weight f4 [100, 9]
0	0xbed49703	-0.41521463
1	0xbe511676	-0.20418724
2	0xbe36434a	-0.17799106
3	0xbee0479b	-0.4380463
4	0xbcdf54ac	-0.027262054
5	0xbe29c789	-0.16580023
6	0xbe8887b1	-0.26666024
7	0xbee039bf	-0.43794057
8	0xbe467912	-0.19382122
9	0x3da85eac	0.08221182
10	0xbe58a2b4	-0.21155816
11	0xbd8c28ef	-0.06843745
12	0xbd77c8f1	-0.060494367
13	0x3ee4f4fa	0.44718152
14	0x3d495787	0.04915574
15	0x3df73c69	0.12072069
16	0xbe423e96	-0.18969187
17	0xbea1c02c	-0.31591928
18	0x3e1d14a1	0.153399
19	0x3d772f02	0.060347565
20	0x3e658696	0.22414622
21	0x3d26a0f8	0.040680856
22	0xbe38c072	-0.18042162
23	0x3e5ded34	0.21672517
24	0x3ea3acf3	0.31967887
25	0xbd4421ba	-0.047883727
26	0xbf1c7535	-0.61116344
27	0xbec98fe7	-0.393676
28	0x3c817913	0.015804803
29	0xbe2c29f1	-0.16812874
30	0xbe5e6b8a	-0.2172071
31	0xbd12bb74	-0.0358233
32	0x3ef9b9a0	0.48774433
33	0xbca0d2d7	-0.019631786
34	0x3d169de1	0.03677166
35	0xbe578f59	-0.21050777
36	0x3ca75549	0.02042641
37	0xbb1cabf3	-0.00239062
38	0x3d2c46ce	0.042059712
39	0xbe04920c	-0.12946337
40	0xbcf78710	-0.03021577
41	0x3dba1937	0.090868406
42	0xbd2ff6d6	-0.04296001
43	0xbc005dd1	-0.007834868
44	0x3f210a39	0.62906224
45	0xbe908d47	-0.28232786
46	0x3eeada5c	0.4586972
47	0xbe2f896f	-0.1714227
48	0xbe813b1b	-0.25240406
49	0x3e2e2c61	0.17009117
50	0xba63fc2d	-0.000869694
51	0xbdf39a9f	-0.11894726
52	0x3e4f2601	0.20229341
53	0x3de5407b	0.11193939
54	0x3e9c6fa7	0.30553934
55	0x3f07f637	0.5311007
56	0xbafe11ee	-0.0019384006
57	0x3e6e6868	0.23282015
58	0xbd4f5a27	-0.050623085
59	0xbe33a8cd	-0.17544861
60	0x3ed77108	0.42078424
61	0xbe725a16	-0.23667178
62	0xbf681897	-0.9066252
63	0xbe506e1d	-0.20354505
64	0xbbe3706a	-0.006940891
65	0xbe8e998f	-0.2785153
66	0xbe2627c3	-0.16226105
67	0xbe8c1e94	-0.2736708
68	0xbd6ac825	-0.05731978
69	0xbb069f5f	-0.002054177
70	0x3eecee4a	0.4627555
71	0xbbed0e6e	-0.007234386
72	0xbe4430e3	-0.19159274
73	0xbd4e884f	-0.050422963
74	0xbe8ad2f9	-0.27114084
75	0xbe67ab35	-0.22623904
76	0xbe007c56	-0.1254743
77	0xbe1c17f5	-0.15243514
78	0x3dca531f	0.09879135
79	0xbe88e10c	-0.26734197
80	0xbe0d2814	-0.1378482
81	0x3c546dc0	0.01296562
82	0xbe3642c1	-0.17798902
83	0x3e498ef7	0.19683443
84	0xbec7e140	-0.3903904
85	0xbe0b934a	-0.13630405
86	0x3cf8285d	0.030292684
87	0xbd325bd7	-0.043544617
88	0x3d864cf0	0.065576434
89	0xbe0be4ed	-0.13661547
90	0xbe911706	-0.28337878
91	0x3e3d8981	0.18509485
92	0xbe9215bb	-0.28532204
93	0xbe033b78	-0.12815654
94	0x3d2abac8	0.041682035
95	0x3f037f88	0.5136647
96	0x3e303f8e	0.17211744
97	0x3e935933	0.2877899
98	0x3e28afb5	0.16473277
99	0xbe7e98c5	-0.24862964
100	0x3ebe6702	0.37187964
101	0xbe62d122	-0.2215009
102	0xbe8141b3	-0.25245437
103	0x3e962d3a	0.2933138
104	0x3eb939ac	0.36176813
105	0x3e14d30b	0.14533632
106	0xbce6a1e5	-0.02815337
107	0xbd28933b	-0.041156035
108	0xbf127619	-0.5721145
109	0xbe2ccc6f	-0.1687486
110	0xbecdfd59	-0.4023235
111	0xbe9df0b9	-0.3084772
112	0x3e83e234	0.25758517
113	0xbe1c2495	-0.1524833
114	0x3ecc8b8d	0.3995022
115	0x3e3389df	0.17533062
116	0x3d3a11e3	0.045427214
117	0x3d133191	0.035935942
118	0x3dbbf342	0.09177257
119	0xbdf05723	-0.1173537
120	0x3f2ceac9	0.67545754
121	0xbd82136c	-0.06351361
122	0xbb704c2b	-0.0036666493
123	0x3efb16f0	0.49040937
124	0xbf09fbcc	-0.53899837
125	0x3ee527b1	0.44756845
126	0xbac4ae19	-0.0015005498
127	0x3db24947	0.08705383
128	0x3e2f64f7	0.17128359
129	0xbef78dd8	-0.48350406
130	0x3d4407bd	0.047858942
131	0x3ea6ef5a	0.32604486
132	0xbda8e3a6	-0.082465455
133	0xbef582ac	-0.47951257
134	0x3e239bd3	0.15977411
135	0xbe602c41	-0.21891882
136	0xbee081a5	-0.4384891
137	0xbf026749	-0.5093885
138	0x3e0b11e6	0.13581046
139	0x3df3c47e	0.11902712
140	0x3f197fa8	0.5996041
141	0x3e21da65	0.15805967
142	0x3ee231ee	0.44178718
143	0xbefa079e	-0.48833936
144	0xbebdf837	-0.37103435
145	0xbe8902ac	-0.2675985
146	0x3ebde3a0	0.37087727
147	0x3e198c53	0.14994936
148	0x3db2de76	0.08733837
149	0xbdeee4dc	-0.11664745
150	0x3df3573b	0.11881872
151	0xbed79fcc	-0.42114103
152	0x3ddaa429	0.10675842
153	0xbb151330	-0.0022747032
154	0x3c9b6ce4	0.018972822
155	0x3e9b8d74	0.30381358
156	0x3ed6d56d	0.41959706
157	0x3ee6b80d	0.45062295
158	0xbe44dd02	-0.19224933
159	0x3f29abbb	0.66277665
160	0x3d37b762	0.04485262
161	0xbd6d22f7	-0.057894673
162	0xbe6a181e	-0.22860762
163	0xbdea1daa	-0.11431439
164	0xbe2dead9	-0.16984119
165	0xbe882f5c	-0.26598632
166	0x3e6e222a	0.2325522
167	0x3e6465b4	0.22304422
168	0x3d838cec	0.06423363
169	0x3ec789b8	0.3897226
170	0x3e9781df	0.2959127
171	0xbefd0016	-0.49414128
172	0xbde0e330	-0.109808326
173	0xbe85a7db	-0.26104626
174	0xbab9c6a0	-0.0014173575
175	0xbcafd4e9	-0.021463828
176	0x3e83796b	0.25678572
177	0x3e86767c	0.2626227
178	0x3e03afc6	0.12860021
179	0x3eee7983	0.4657708
180	0xbe865432	-0.2623611
181	0x3cba2120	0.022720873
182	0xbd367296	-0.04454287
183	0xbdc7abe6	-0.09749584
184	0x3ef0a925	0.47004047
185	0xbda93627	-0.08262282
186	0xbae3c6c8	-0.0017377967
187	0x3ed998b8	0.42499328
188	0xbb71019f	-0.0036774648
189	0x3e9888a2	0.29791743
190	0xbdbe736a	-0.09299357
191	0x3e554b0b	0.20829408
192	0xbe1e71a9	-0.15473045
193	0x3e4127f7	0.18862902
194	0x3eee454a	0.46537238
195	0xbd59db83	-0.05318786
196	0x3ded70ef	0.11593806
197	0xbf00b8cb	-0.5028197
198	0xbf4b38e4	-0.79383683
199	0xbe1e1d09	-0.15440764
200	0xbe16da7b	-0.14731781
201	0x3e7585a2	0.23976758
202	0xbe75f3d8	-0.240188
203	0x3e13b48c	0.14424342
204	0xbed766f2	-0.4207073
205	0xbd413163	-0.04716624
206	0x3e5e460f	0.21706413
207	0xbc074c9e	-0.008258013
208	0x3e50600e	0.20349142
209	0x3e435924	0.19076973
210	0xbe1116ce	-0.14168856
211	0x3ea1376c	0.31487596
212	0x3c054c76	0.0081359055
213	0x3eef44e4	0.46732247
214	0x3ee3757e	0.44425577
215	0x3e996e40	0.29966927
216	0xbe8707bd	-0.2637309
217	0x3e8dde94	0.27708876
218	0x3e88c02e	0.2670912
219	0xbe132152	-0.1436818
220	0xb9e7df75	-0.00044226242
221	0xbe200ed9	-0.15630664
222	0x3eaa5237	0.3326585
223	0x3ed68a3f	0.41902348
224	0x3ed3ea67	0.41389772
225	0xbdf0cc15	-0.117576756
226	0xbd9711ad	-0.07376418
227	0xbec88ba7	-0.39169046
228	0x3eac6754	0.33672583
229	0x3ea936b5	0.3304955
230	0x3dca6c5c	0.09883949
231	0x3db99603	0.090618156
232	0xbcb1fc09	-0.021726625
233	0x3db64cb4	0.08901349
234	0x3e69f1e3	0.22846179
235	0xbec0d989	-0.37665966
236	0x3edb18d8	0.42792392
237	0xbf24c377	-0.64360756
238	0xbe8185fe	-0.2529754
239	0x3d2f7006	0.042831443
240	0x3ccb0a68	0.024785236
241	0x3e72512d	0.23663779
242	0x3eb8a355	0.36062112
243	0xbe1b1689	-0.15145315
244	0xbe4f95d5	-0.20272
245	0xbd615ce4	-0.055020228
246	0xbd800408	-0.06250769
247	0xbbb8e93d	-0.0056430385
248	0x3db6b18b	0.089205824
249	0xbe21f133	-0.15814666
250	0xbe1f8045	-0.15576275
251	0x3e846cb5	0.25864187
252	0xbceb8dc4	-0.028754123
253	0xbea463a0	-0.32107258
254	0xbcca667f	-0.024707077
255	0x3df0c8ee	0.11757074

h2h.weight f4 [100, 100]
0	0xbd7eb9b8	-0.062188834
1	0x3ce86193	0.02836684
2	0xbc745cd5	-0.014914711
3	0x3b0c05e0	0.0021365806
4	0xbc671f11	-0.014106528
5	0x3cdcbdbf	0.026945947
6	0xbbd8cc83	-0.0066161766
7	0x3d2478bf	0.040154215
8	0xbd09a45e	-0.03360402
9	0xba142d76	-0.0005652526
10	0xbcc0f0c1	-0.0235523
11	0xbcc44fbd	-0.023963803
12	0xbd09d8b7	-0.03365394
13	0xbcbaac30	-0.022787184
14	0xb9e19b88	-0.00043031224
15	0x3ca645d6	0.020296972
16	0x3c0f2418	0.008736633
17	0x3c5e13b1	0.0135544995
18	0x3b0bc5d0	0.0021327622
19	0xbab1a221	-0.0013552346
20	0x3cf8b555	0.030359903
21	0xbce9ea0e	-0.028553989
22	0x3c276abc	0.010218319
23	0xbd3123a6	-0.043246888
24	0x3c93cc34	0.018041708
25	0xbd4f20e2	-0.05056847
26	0xbc9535f5	-0.018214205
27	0xbd2fd174	-0.04292436
28	0xb8b71b54	-8.73121e-05
29	0xbbbaaeeb	-0.0056971214
30	0x3c8ee2d0	0.017442137
31	0xbbccb1e7	-0.0062467935
32	0x3c853742	0.0162617
33	0x3c853b6b	0.016263684
34	0xbd1d1997	-0.038354483
35	0xbb8b1461	-0.0042443727
36	0xbd039f74	-0.03213449
37	0x3d8ad0c3	0.067780994
38	0x3b73aa56	0.0037180386
39	0x3c9f32c0	0.01943338
40	0xbb1a256b	-0.0023520838
41	0xbd0a209b	-0.0337225
42	0xbd4ad92c	-0.049523517
43	0x3c32c03f	0.010910093
44	0x3adef096	0.0017008956
45	0x3c8e1886	0.017345678
46	0xbb5dcaea	-0.003384287
47	0xbb8397fb	-0.00401592
48	0xbbebbd13	-0.0071941703
49	0xbd1a0802	-0.037605293
50	0xbd096bde	-0.033550136
51	0x3c88cf9f	0.016700564
52	0xbd1a731d	-0.037707437
53	0xbc7a01b9	-0.0152592
54	0xbbdf492b	-0.006814142
55	0x3bb382aa	0.005478223
56	0x3d8a3ed4	0.06750265
57	0x3d10f2c3	0.035387766
58	0x3c97f27e	0.018548246
59	0xbac30701	-0.0014879407
60	0xbd533d1a	-0.051571943
61	0x3c3e090b	0.011598836
62	0xbd59d614	-0.053182676
63	0xbceca2e4	-0.028886266
64	0x3c9a1e2b	0.018813213
65	0x391d539a	0.00015003831
66	0xbd0fd57d	-0.035115708
67	0x3d29d566	0.04146328
68	0x3a184c66	0.0005809724
69	0x3ca8a9f4	0.020588852
70	0x3bb9d2d1	0.005670883
71	0x3d633a29	0.055475388
72	0x39f7f9ba	0.00047297572
73	0x3d0ebf88	0.034850627
74	0xbc550dc5	-0.013003771
75	0xbc94ce33	-0.01816473
76	0xbc70e327	-0.014702595
77	0xbb3be98d	-0.0028673143
78	0x3c4fd134	0.012684155
79	0xbbcbde06	-0.0062215356
80	0xbe12aff3	-0.14324932
81	0xbc6912d2	-0.0142256785
82	0xbbcf28f1	-0.0063220193
83	0xbc00d5c6	-0.007863468
84	0xbdc4827a	-0.09595199
85	0x3d4f2584	0.050572887
86	0x3d7dd30f	0.06196886
87	0x3dbb58b4	0.09147778
88	0x3ce33841	0.027736785
89	0xbd24ea34	-0.040262416
90	0xbdcf211f	-0.10113739
91	0x3e3d4a05	0.18485267
92	0x3d84e9ff	0.06489944
93	0x3d3a67d7	0.045509186
94	0xbd4cb860	-0.04998052
95	0xba0a7442	-0.0005281606
96	0x3ea9b84b	0.33148417
97	0xbe2fed2f	-0.17180322
98	0xbd74d12e	-0.0597698
99	0x3d7b8850	0.061409295
100	0xbd1476ae	-0.036245994
101	0xbc26e763	-0.010187003
102	0xbcf77689	-0.03020789
103	0xbbd9745a	-0.0066361846
104	0xbbc35864	-0.0059614647
105	0xbbe0314e	-0.006841815
106	0x3bcb08c6	0.0061961142
107	0x3cad9f96	0.02119426
108	0xbcaa52a5	-0.020791361
109	0xbaabd0f5	-0.0013108539
110	0xbc80a564	-0.015703864
111	0xbb7ca975	-0.0038553153
112	0xbbfa5bd1	-0.00764034
113	0xbcdb9989	-0.02680661
114	0xbab5c4c2	-0.0013867842
115	0xbcbc2801	-0.022968294
116	0x3d138f28	0.036025196
117	0x3c88c791	0.016696723
118	0x3c358579	0.011079186
119	0x3c509f79	0.012733334
120	0xbbf852a4	-0.007578211
121	0xbc9ee9d6	-0.019398611
122	0x3c21b806	0.009870535
123	0xbc1a5b5f	-0.009421199
124	0x3cace397	0.021104617
125	0xbcd0f71f	-0.025508462
126	0x3cdbbce1	0.026823463
127	0xbc2c6bf9	-0.01052379
128	0x3d254482	0.040348537
129	0xbd655a24	-0.055994168
130	0xbb977152	-0.004621663
131	0xbd1baea5	-0.03800835
132	0xbc9f8270	-0.019471377
133	0xbb954079	-0.004554805
134	0xb9d2936f	-0.00040164168
135	0xbb4bef72	-0.0031118062
136	0xbc73c4f5	-0.014878501
137	0xbc16a9b6	-0.009195736
138	0xbd4a6da9	-0.049420986
139	0xbb903f7c	-0.004402099
140	0xbcca2b68	-0.0246789
141	0x3c8bf650	0.017085224
142	0xbaaee055	-0.0013342003
143	0xbbb0a470	-0.005390696
144	0x3cfd6063	0.03092975
145	0xbd3bccb8	-0.045849532
146	0x3c0141d8	0.0078892335
147	0x3c6466c0	0.013940513
148	0xbbec0311	-0.007202514
149	0xbccfe98b	-0.025379917
150	0x3c7678af	0.015043422
151	0xbb46886e	-0.003029372
152	0xbbd4725d	-0.0064833597
153	0xba788e25	-0.00094816304
154	0xba42da10	-0.00074330065
155	0xbc2afe74	-0.010436643
156	0xbb73f12a	-0.0037222602
157	0xba691f15	-0.0008892876
158	0x3b4ca66c	0.0031227125
159	0xbb854ff4	-0.004068369
160	0x3c3ef7ea	0.011655787
161	0xbd8d6ed9	-0.06905908
162	0x3c1942a0	0.009354264
163	0x3c7aaa37	0.015299371
164	0xbbe48c44	-0.006974729
165	0x3c19bdbe	0.009383617
166	0x3ace3444	0.0015732129
167	0xbd01cf3e	-0.031691782
168	0xbba760a9	-0.0051079583
169	0xbd29142c	-0.041279003
170	0x3b2ef438	0.0026695859
171	0x3af4e7ba	0.0018684783
172	0x3d825055	0.06362978
173	0xbc9da14e	-0.019241955
174	0xbd6e314d	-0.058152486
175	0xbd2a4966	-0.041573904
176	0xbb675ae3	-0.0035301975
177	0xbbaaa179	-0.0052072373
178	0x3d00f6b5	0.03148528
179	0xbcf6f45a	-0.030145813
180	0xb8d47f7f	-0.00010132696
181	0x3d896480	0.06708622
182	0xbad69cf0	-0.0016373675
183	0x3d05a94d	0.03263216
184	0xbd5cf6d2	-0.053946324
185	0xbd6152fd	-0.055010784
186	0x3e363c9c	0.17796558
187	0x3bea081e	0.007142081
188	0x3ca3e795	0.020007888
189	0xbdcef00c	-0.10104379
190	0xbddd8faa	-0.10818417
191	0xbe0549d0	-0.13016438
192	0x3e292f8c	0.16522044
193	0x3e4bd540	0.19905567
194	0xbb008187	-0.0019608454
195	0xbe0b0617	-0.13576542
196	0x3d606766	0.05478611
197	0x3df66dc1	0.12032653
198	0x3df18075	0.11792079
199	0xbe4da9a6	-0.20084247
200	0x3d482989	0.048867736
201	0xbbe4b12e	-0.0069791293
202	0x3a10000d	0.00054931716
203	0xbc9a298a	-0.018818635
204	0xbc453e0f	-0.012038722
205	0xbca427f8	-0.02003859
206	0xbcb1bc47	-0.021696223
207	0xbd9d44fb	-0.076791726
208	0x3c930a3c	0.017949216
209	0x3c4bd1b3	0.012440133
210	0xbb585df2	-0.003301498
211	0xbd13ee89	-0.036116157
212	0xbb16df44	-0.002302126
213	0xbb9bfc50	-0.0047603026
214	0xbce51347	-0.027963294
215	0x3b33c033	0.0027427792
216	0xbbe26c04	-0.006909849
217	0xbc72a1b3	-0.01480906
218	0x3b09891b	0.0020986262
219	0xbb369825	-0.0027861681
220	0xbb8cdad7	-0.0042985487
221	0xbd27b66f	-0.040945467
222	0x3c8ba418	0.01704602
223	0xbd77260a	-0.06033901
224	0xbb933638	-0.0044925474
225	0x3d1efa66	0.038813017
226	0x3d597085	0.053085823
227	0xbcf2f58b	-0.0296581
228	0xb846d0fb	-4.7401507e-05
229	0xbbd02d59	-0.006353062
230	0xbc903ee5	-0.017608115
231	0xbbbe72a5	-0.0058120065
232	0xbba59ae0	-0.005053863
233	0x3ca34466	0.019930076
234	0x3d1b8f8f	0.037978705
235	0xbc2e816c	-0.010650974
236	0x3c43fcae	0.011962099
237	0x3bbda244	0.005787166
238	0xbbb51af3	-0.0055268942
239	0xba25116d	-0.0006296847
240	0xbce4074b	-0.027835509
241	0x3c4920ce	0.012275888
242	0xb90cfdfc	-0.00013446057
243	0xbc8ed9fa	-0.017437924
244	0x39bad35d	0.00035634162
245	0x3d0fb80b	0.035087626
246	0xbd8285ef	-0.06373202
247	0xbbc06b5f	-0.0058721746
248	0x3d402017	0.046905603
249	0xbba588f7	-0.005051728
250	0xba2642b3	-0.00063423364
251	0xbca2e5bc	-0.019884937
252	0xbb2985cf	-0.002586711
253	0x3b906057	0.004406016
254	0xb99ed71b	-0.00030296374
255	0x3b785863	0.003789448

h2h.bias f4 [100]
0	0xbc1a2776	-0.009408822
1	0xbc2d9a6c	-0.010595899
2	0xbc863d5d	-0.016386682
3	0xbc8c6e58	-0.01714246
4	0xbc876774	-0.016528822
5	0xbb953978	-0.00455397
6	0xbcd541a3	-0.026032275
7	0x36399ff8	2.7660262e-06
8	0xbc13c12a	-0.009018222
9	0xbc39cd4b	-0.01134045
10	0xbd1edec2	-0.038786657
11	0xbcbcaf1a	-0.023032714
12	0x3bc3c8cc	0.0059748646
13	0xbd738701	-0.05945492
14	0xbccf3f9b	-0.025298884
15	0xbd118cdc	-0.035534725
16	0xbd4f9951	-0.050683323
17	0xbd86b3f5	-0.06577293
18	0xbcfbedd9	-0.030753063
19	0xbc28cb1b	-0.01030233
20	0xbb918be7	-0.0044417265
21	0xbcf8ecb7	-0.030386312
22	0xbc93b866	-0.018032264
23	0xbd892aa7	-0.066975884
24	0xbd828276	-0.0637254
25	0xbc30ca3e	-0.010790406
26	0xbd0e616e	-0.034760885
27	0xbc53b522	-0.012921603
28	0xbc636bf5	-0.013880719
29	0xbd19583b	-0.03743766
30	0x3c23772b	0.009977142
31	0xbc1aa8fd	-0.009439704
32	0xbc4f2d13	-0.012645024
33	0xbd211175	-0.03932329
34	0xbd27266f	-0.040808138
35	0x3c6c4f50	0.014423206
36	0xbc902b78	-0.017598853
37	0xbcd4f083	-0.025993591
38	0xbcef2233	-0.029191112
39	0xbc30184d	-0.010747981
40	0xbcba0053	-0.022705233
41	0xbcf3c83b	-0.029758563
42	0x3c17a496	0.009255549
43	0xbcbdb828	-0.023159102
44	0xbc33ab58	-0.0109661445
45	0xbc324e64	-0.010882948
46	0xbbdded11	-0.0067726453
47	0xbcd7ff3c	-0.026366822
48	0xbb9e2927	-0.004826683
49	0xbbdd8113	-0.0067597716
50	0xbc8c545c	-0.01713007
51	0xbd0425f9	-0.032262776
52	0xbc4b7801	-0.012418748
53	0xbc3bb254	-0.011456091
54	0x3d20915c	0.039201126
55	0xbcdcfe4e	-0.02697673
56	0xbc8cd50e	-0.017191436
57	0x3bcadacb	0.006190633
58	0xbc2fd988	-0.010733016
59	0xbcd4c7c1	-0.025974156
60	0xbd0e74fd	-0.034779537
61	0xbca7c726	-0.020480704
62	0xbc4b8dc6	-0.012423938
63	0x3b3158ef	0.0027061065
64	0xbd1251c2	-0.0357225
65	0xbd1ffbd0	-0.039058506
66	0xbd40476a	-0.046943106
67	0xbc298c38	-0.010348372
68	0xbb905987	-0.0044052037
69	0xbc014ae7	-0.007891393
70	0xbd8b797a	-0.06810279
71	0xbd1f5eb9	-0.038908694
72	0xbd5df089	-0.05418447
73	0xbcdde2c3	-0.027085667
74	0xbcecaf28	-0.028892115
75	0xbb67aad9	-0.0035349636
76	0xbc27f1a3	-0.010250482
77	0xbc57affc	-0.013164517
78	0xbc58f2b1	-0.013241456
79	0xbcdd12ed	-0.026986564
80	0x3d19fec3	0.037596475
81	0x3d72b27b	0.059252243
82	0x3d067c9d	0.032833684
83	0x3cdf8a19	0.02728753
84	0x3cb95e44	0.022627957
85	0x3d654f23	0.055983674
86	0x3d1fa9a4	0.03898014
87	0x3d219562	0.039449103
88	0x3d0324ef	0.032017644
89	0x3d2e63ae	0.04257553
90	0x3d2f8da3	0.042859685
91	0x3d07df56	0.033171974
92	0x3d41a604	0.047277465
93	0x3d3bc5dd	0.045842994
94	0x3d453573	0.048146676
95	0x3d48e33a	0.049044825
96	0x3c18638e	0.009301079
97	0x3d397971	0.04528183
98	0x3cfe02d3	0.031007206
99	0x3cd1651c	0.025560908

attn_func.0.weight f4 [3, 100]
0	0x3c454919	0.012041354
1	0xbc990ec0	-0.018683791
2	0xbd204fc8	-0.039138585
3	0x3d8aac2d	0.06771121
4	0x3ce66cb6	0.02812801
5	0x3d33178e	0.043723635
6	0x3da14c70	0.078759074
7	0x3d7231e9	0.05912963
8	0xbd18b705	-0.037283916
9	0xbb56653a	-0.0032714144
10	0xbd2667fb	-0.040626507
11	0xbcf8cdb5	-0.030371526
12	0xbc5cfbf0	-0.013487801
13	0xbcbf5aef	-0.02335879
14	0x3d0148a0	0.0315634
15	0xbcc7ab57	-0.024373693
16	0x3ca8167c	0.020518534
17	0x3cbc1904	0.022961147
18	0x3d46c812	0.048530646
19	0xbcacf9cd	-0.021115208
20	0xbc9d3fbc	-0.01919543
21	0xbcc6824b	-0.02423205
22	0xbd130ce8	-0.03590098
23	0x3d2d4d2c	0.042309925
24	0xbc2721be	-0.010200916
25	0x3cdc130a	0.026864547
26	0x3d286bd5	0.04111846
27	0xbc93f843	-0.018062716
28	0x3d4650af	0.04841679
29	0xbcc259e5	-0.023724506
30	0x3cd043b8	0.025422916
31	0xbcd796e8	-0.026317075
32	0x3ca49a88	0.020093217
33	0x3d407bd4	0.04699309
34	0xba12c7f3	-0.0005599253
35	0xbbb6b285	-0.0055754804
36	0xbc43fd2b	-0.011962215
37	0x3d91f174	0.07126132
38	0xbc0aa572	-0.008462297
39	0xbc309677	-0.010778061
40	0xbb4e549e	-0.0031483541
41	0xbcabee9f	-0.020987807
42	0xbb80a1b9	-0.003925529
43	0x3c94fde1	0.018187465
44	0xbcd8b775	-0.026454667
45	0x3ce35a93	0.02775315
46	0xbc8bd472	-0.017069075
47	0xbc1fb8b0	-0.009748623
48	0xbc9e0374	-0.019288756
49	0xbc24666e	-0.010034187
50	0xbc7db237	-0.015484384
51	0xbca0955d	-0.019602472
52	0x3cf68995	0.030094901
53	0xbc5286fc	-0.012849566
54	0x3d777e7d	0.060423363
55	0x3d2a6832	0.041603275
56	0xbb883282	-0.0041564116
57	0xbc0cf343	-0.00860292
58	0xbbd3645a	-0.006451172
59	0xbc2d98fc	-0.010595556
60	0xbd02edbd	-0.031965006
61	0xbbe21e38	-0.006900575
62	0x3d128627	0.03577247
63	0xbbdd89e5	-0.006760823
64	0xbbbde428	-0.0057950206
65	0x3d221fbc	0.039581046
66	0xbcb89bc8	-0.02253522
67	0x3d8c1550	0.068400025
68	0x3cc4dc08	0.0240307
69	0xbc835739	-0.016032802
70	0x3d83697a	0.064166024
71	0x3cd3db40	0.025861382
72	0xbcbe33a2	-0.02321798
73	0xbbb536c1	-0.005530209
74	0x3d269117	0.040665712
75	0xb9bf016a	-0.00036431412
76	0x3bad8fcb	0.0052966825
77	0xbc9780b7	-0.018493993
78	0x3d12eb1c	0.03586875
79	0x3cfc1e71	0.030776234
80	0xbe070c9e	-0.13188407
81	0x3ddb36fb	0.10703846
82	0xbae3887e	-0.0017359403
83	0x3c9f87fe	0.019474026
84	0xbcc94e99	-0.024573611
85	0x3da9a942	0.082842365
86	0xbe6a88e5	-0.22903784
87	0xbc8db94a	-0.017300267
88	0x3b36652b	0.0027831297
89	0x3c96a0f3	0.018387293
90	0xbcdc62fa	-0.026902664
91	0x3de48202	0.111576095
92	0x3cb7a739	0.022418605
93	0x3e2b11b3	0.1670597
94	0xbc0b3dc9	-0.008498617
95	0xbe0a636c	-0.13514489
96	0xbe157449	-0.1459514
97	0x3daaedeb	0.083461605
98	0xbd9ab053	-0.075531624
99	0x3d874f99	0.06606979
100	0xbd6d36bb	-0.057913523
101	0xbc201a8f	-0.009771957
102	0xbaaefb30	-0.0013350006
103	0x3c08c402	0.008347513
104	0xbcff6f65	-0.031181047
105	0x3cbdabaf	0.023153154
106	0xbc1e05d6	-0.009644946
107	0xbd0238bb	-0.031792384
108	0xbcfb1f6f	-0.030654637
109	0xbc584a94	-0.013201375
110	0x3bffec71	0.0078101684
111	0xbc12c068	-0.008957006
112	0xbb11ba93	-0.002223645
113	0xbc3f7fb4	-0.011688162
114	0xbcc547bb	-0.024082055
115	0xbcc176cb	-0.023616215
116	0xbc2d987d	-0.010595438
117	0xbcb9bdab	-0.022673449
118	0xbc48595c	-0.012228336
119	0x3d4d9f9a	0.050201036
120	0xbc88ba14	-0.016690291
121	0xbb332a7c	-0.0027338555
122	0xbb1e3482	-0.0024140184
123	0x3c8ff398	0.01757221
124	0xbaa0989b	-0.0012252511
125	0x3c7b228b	0.01532806
126	0xbca5b368	-0.02022715
127	0xbcb330fd	-0.021873945
128	0x3cb8441e	0.022493418
129	0x3cc026d0	0.023456007
130	0x3c8466cd	0.0161623
131	0xbd1b948e	-0.03798347
132	0x3cab978e	0.02094629
133	0xbbc510cf	-0.0060139666
134	0xbd2d3562	-0.042287238
135	0x3d65cb05	0.056101818
136	0xbb66b0e6	-0.0035200655
137	0xbab4aa41	-0.001378365
138	0x3c370dab	0.011172692
139	0xbb06a2e1	-0.002054386
140	0xbb8d5e0b	-0.0043141893
141	0x3c9b8ae0	0.01898712
142	0xbc5a9692	-0.013341563
143	0xbb8dad30	-0.004323624
144	0xbc9018aa	-0.017589886
145	0xbca13e20	-0.019682944
146	0xbc271c4c	-0.010199618
147	0xbb1c8717	-0.002388423
148	0xbd05be8b	-0.03265242
149	0x3c61086f	0.013734921
150	0xbaefe5b5	-0.0018302711
151	0xbc11b44c	-0.008893084
152	0xbc59a3dd	-0.013283697
153	0x3d1a132c	0.03761594
154	0xbd033a1b	-0.032037836
155	0xbc9010f3	-0.017586207
156	0x3d0ad28e	0.033892207
157	0x3aa31ff5	0.0012445437
158	0x3c886335	0.016648868
159	0xba9b59fd	-0.001185238
160	0xba721b2e	-0.00092356175
161	0x3cfabfb2	0.030608986
162	0xbb8093d2	-0.0039238716
163	0xbc48ca5f	-0.01225528
164	0xbb628473	-0.003456381
165	0xbcbaa7e5	-0.022785136
166	0x3bad81e2	0.0052950243
167	0x3d0f970c	0.03505616
168	0x3c56083e	0.0130634885
169	0x3c8ce1e6	0.01719756
170	0x3c861e27	0.0163718
171	0x3ced9f70	0.02900669
172	0xbcdb5c7c	-0.026777498
173	0xbad57d0f	-0.0016287881
174	0x3d34bdb7	0.04412624
175	0xba8ab5e2	-0.001058277
176	0xbcaaaba2	-0.020833794
177	0xbc72f835	-0.014829685
178	0x3a2b99e5	0.00065460644
179	0x3d0c5e86	0.034269832
180	0xbcd193ae	-0.025583114
181	0x3d6e6977	0.058206048
182	0x3db4ae68	0.08822328
183	0xbd673952	-0.05645115
184	0x3cae6f42	0.021293286
185	0x3cf87b89	0.030332344
186	0xbd459bd7	-0.048244324
187	0x3d9a25bc	0.075267285
188	0xbdd102bd	-0.102056004
189	0x3d3b34d5	0.04570468
190	0x3d8e597a	0.0695066
191	0x3da880d1	0.08227695
192	0xbd84f9c1	-0.06492949
193	0xbcd06d44	-0.025442727
194	0xbd350412	-0.044193335
195	0x3c837654	0.016047634
196	0xbcd20a3c	-0.025639646
197	0xbd492be2	-0.049114116
198	0xbd20d59b	-0.03926621
199	0x3cbeabdc	0.023275308
200	0xbb1c1231	-0.0023814554
201	0xbc1925aa	-0.009347359
202	0xbacb192f	-0.0015495176
203	0x3c43424f	0.011917665
204	0xba6f9a3b	-0.00091401086
205	0xbcff906a	-0.031196792
206	0xbba64a55	-0.005074779
207	0xbb498fac	-0.00307558
208	0xbc75288a	-0.014963279
209	0xbb32b525	-0.0027268615
210	0xbc012ca2	-0.007884176
211	0xbaab5ca0	-0.0013073869
212	0xbcbcccc9	-0.023046868
213	0xbba45223	-0.0050146743
214	0xbbd060d9	-0.0063592014
215	0xbbe63720	-0.0070256144
216	0xbb43217b	-0.0029774595
217	0xbbadc9bf	-0.005303591
218	0xbbbb1113	-0.0057088225
219	0x3c891988	0.016735807
220	0x3bd7dfe1	0.0065879677
221	0xbb907e95	-0.004409621
222	0xbae154b6	-0.0017191384
223	0xbb780a8c	-0.0037848083
224	0x3ce17440	0.027521253
225	0xbbbd4d54	-0.0057770405
226	0x3c8a4de2	0.01688284
227	0xbd28609b	-0.041107755
228	0xbbf2d5e8	-0.0074107535
229	0xbbc3f2fe	-0.0059798947
230	0xb986a85a	-0.00025683903
231	0xb91c6cfb	-0.00014917918
232	0xbc7cd254	-0.0154310055
233	0xbbf025de	-0.007328733
234	0xbb739afe	-0.003717124
235	0xbc6bbc7d	-0.014388201
236	0xbbc2f28e	-0.005949325
237	0xbbab9c8a	-0.005237167
238	0x3c36715a	0.011135424
239	0xbcca4c40	-0.024694562
240	0xbbbb0990	-0.005707927
241	0xbc8d09e8	-0.017216638
242	0xbb1582e9	-0.0022813624
243	0xbc6b46d1	-0.014360146
244	0xbc2658f6	-0.010153046
245	0xbbf7e20a	-0.0075647878
246	0x3b253170	0.002520647
247	0xbac77958	-0.0015218658
248	0xba96482e	-0.0011465603
249	0x3cbcc145	0.023041377
250	0xbba43d42	-0.0050121853
251	0xbbaa5e82	-0.0051992545
252	0xbcd54f3c	-0.026038758
253	0xbba02263	-0.0048869117
254	0xbd35d85c	-0.04439579
255	0xbbab592a	-0.005229135

attn_func.0.bias f4 [3]
0	0x3d2dff17	0.0424796
1	0xbc4550ef	-0.012043222
2	0xbccb18ba	-0.024792064
