exp/test/checkpoint.pth.tar (torch, 47763 bytes, 6 tensors)

x2h.weight f4 [100, 9]
000000 24 a7 80 3e 20 4a b5 3d 9d 59 06 3e f2 75 76 3e
       0.25127518 0.08852029 0.13120122 0.2406843
000010 72 4f 2b 3b 85 78 89 3e 52 1a 03 3e 1e eb 7a 3e
       0.0026139882 0.26849762 0.12803009 0.24503753
000020 9f a0 3f 3e e3 3d 15 3e 0e 7e 55 3e 6f b8 2e 3e
       0.18713616 0.14574389 0.20848867 0.17062543
000030 ba 86 64 3e c8 6c c5 3d 1d 35 20 3e 94 18 14 3e
       0.22317019 0.09639889 0.15645261 0.14462501
000040 17 49 3d 3e c5 00 28 3e 6d b3 9f 3e b2 15 5b 3e
       0.18484913 0.16406544 0.31191579 0.21394995
000050 6d 59 c7 3d 4c ea 7c 3d 2d e4 0e 3e 32 fd bb 3d
       0.097338535 0.06174688 0.1395423 0.091791525
000060 2a de e3 3d 75 53 34 3e d6 7b 86 3e 97 75 84 3e
       0.11126359 0.17609961 0.26266354 0.25870964
000070 4e 01 43 3b b8 97 8a 3e 7f 74 5e 3e f9 89 a7 3e
       0.0029755416 0.27068877 0.21724127 0.32722452
000080 ac 6c 8b 3e e2 1f 6b 3c 06 ad 2a 3c 0a fe ae 3d
       0.27231348 0.014350863 0.010417229 0.08544548
000090 19 d5 a0 3e 76 ea 0f 3e f2 a4 71 3e 5e 13 b8 3d
       0.3141258 0.14054283 0.23598078 0.08988069
0000a0 0f 53 aa 3e 41 29 c3 3d e6 e1 94 3e e1 4a 31 3e
       0.33266494 0.09529353 0.29078597 0.1731372
0000b0 85 41 9d 3d fe bc 81 3e b8 99 a1 3d fb e9 5f 3e
       0.076785125 0.25339502 0.07890648 0.218666
0000c0 9f bf f6 3d 1b d2 1a 3e e1 55 2b 3c 74 1d b4 3d
       0.120482676 0.15119211 0.010457487 0.0879468
0000d0 5e 93 85 3e 5d d9 02 3e df 11 aa 3e f3 29 96 3e
       0.26088995 0.1277823 0.3321676 0.2932888
0000e0 0f d1 1e 3e c2 05 51 3d 0b 65 86 3e 95 6b 61 3e
       0.15509437 0.05103088 0.26248965 0.22013696
0000f0 f6 71 67 3d aa f6 89 3e 22 73 86 3e e8 8f a1 3e
       0.056505166 0.26946002 0.26259714 0.31555104
000100 d3 3b 98 3d 05 d4 0f 3e e7 6e 2a 3e b3 0a 46 3e
       0.074332856 0.14045723 0.16643868 0.19340019
000110 ac a9 1e 3d 61 55 45 3d 8f e0 85 3e 2d b2 00 3e
       0.03873603 0.048177127 0.26147887 0.12567969
000120 72 53 7f 3e 11 b1 35 3e ff 40 62 3e 12 a1 53 3e
       0.24934176 0.17743327 0.22095107 0.20666912
000130 c1 0d 6c 3e 95 53 7d 3e e4 37 57 3c 51 11 83 3e
       0.23052122 0.24738915 0.013135884 0.2559915
000140 bb a2 48 3d 54 e8 20 3d 35 d5 30 3e f6 1a 0b 3e
       0.048983317 0.039284065 0.17268832 0.13584504
000150 de 36 85 3e 07 da 84 3d 13 9d a5 3c b5 43 91 3e
       0.26018423 0.06486898 0.0202165 0.2837197
000160 5a a8 0a 3e c2 c1 84 3e 2c 0f 60 3e 85 97 14 3d
       0.13540784 0.25929075 0.21880788 0.036277313
000170 24 c2 48 3e 15 65 4f 3e da 44 40 3d 14 98 b2 3d
       0.19605309 0.20253403 0.046940662 0.08720413
000180 eb bf 5f 3e 37 43 43 3e f3 8b ba 3d ce 27 ec 3d
       0.21850555 0.19068609 0.091087244 0.1153103
000190 c8 db a3 3e 56 a9 09 3e 4f 2b 83 3e 38 d1 77 3e
       0.32003617 0.13443503 0.2561898 0.24200904
0001a0 5c 1d 73 3d de bb cd 3c d0 d3 a7 3e f3 04 31 3e
       0.05935417 0.025113996 0.32778788 0.17287044
0001b0 45 01 8f 3e 11 5e 4b 3e 64 8e 5f 3e 5b 88 92 3e
       0.27930656 0.19860102 0.21831661 0.28619656
0001c0 a2 3b a7 3e 0b 4f 69 3d d8 96 40 3e 1a 8b 94 3e
       0.32662684 0.056960147 0.18807542 0.29012376
0001d0 e8 df 8f 3e 67 f1 8a 3e 69 4c 47 3d 25 34 34 3d
       0.28100514 0.271373 0.048656855 0.04399504
0001e0 c9 0b 88 3d fa e7 43 3e d6 77 a9 3e ea ce 77 3d
       0.06642873 0.19131461 0.3309924 0.060500063
0001f0 5d 6f 85 3e 65 ae 95 3d 99 8e 39 3c fe fd 08 3e
       0.26061526 0.07308654 0.011325502 0.1337814
000200 f0 55 87 3e bb 70 a6 3e 0d 66 89 3d 3a 54 4d 3e
       0.26432753 0.32507882 0.06708918 0.20051661
000210 3f a9 a0 3e e4 9b 90 3e 81 30 8a 3e c4 bf 92 3e
       0.31379125 0.28243935 0.2699013 0.2866193
000220 e9 77 8c 3e 81 07 58 3e 9f 39 67 3d ff 5f f5 3c
       0.27435234 0.21096613 0.056451436 0.029953001
000230 a4 c7 b4 3d c9 f1 19 3e 20 16 90 3d f6 12 68 3e
       0.08827141 0.1503364 0.0703547 0.22663483
000240 3a ff 5d 3e ab 53 ff 3d 17 43 69 3e 29 46 5d 3e
       0.21679392 0.1246713 0.22779499 0.21608795
000250 68 6b 86 3e ca d2 8f 3e 09 5a d9 3d a2 87 a5 3e
       0.2625382 0.28090507 0.10612876 0.32330042
000260 54 08 15 3e 81 c4 25 3e 3a 6b 35 3c 80 85 6b 3d
       0.14553958 0.16188242 0.011072928 0.057500362
000270 ea 19 91 3d 23 29 c3 3d 88 6b 91 3e d0 66 e1 3d
       0.07085021 0.095293306 0.28402352 0.11005938
000280 e9 ce 44 3d f1 c6 6b 3e 6f e8 5f 3e c2 d7 8a 3e
       0.048048887 0.23025109 0.2186601 0.27117735
000290 c5 dc 9f 3d 51 f9 4b 3e e7 9a cf 3d e9 c4 05 3e
       0.0780578 0.19919325 0.10136967 0.13063397
0002a0 e6 51 e3 3c 69 1b ae 3d 41 c1 eb 3d 6d 31 72 3e
       0.027749013 0.08501322 0.1151147 0.23651667
0002b0 e2 35 46 3e 95 8d 52 3e 81 5e a8 3e 12 5e a6 3e
       0.19356492 0.20561822 0.328846 0.32493645
0002c0 81 73 90 3e 32 bb 2b 3e c5 a7 3a 3d e5 c9 97 3e
       0.28213122 0.16770628 0.045570154 0.2964622
0002d0 0e 75 fc 3d a5 94 1c 3e 20 e9 c6 3c ef 36 05 3e
       0.12327014 0.15291078 0.024281085 0.13009237
0002e0 4c 85 82 3d d4 e3 a3 3e 0b 3a d0 3c 90 1b 21 3d
       0.063730806 0.32009757 0.025418302 0.039332926
0002f0 15 a6 22 3e 02 92 99 3d 72 5b 62 3e f0 d5 d4 3d
       0.15883668 0.07498552 0.22105196 0.10392368
000300 bb ba ab 3d 13 86 30 3e 66 e4 95 3e b2 c1 4b 3d
       0.083852254 0.17238645 0.29275817 0.04974527
000310 c3 8a 76 3e 08 13 8a 3e 33 13 a8 3e 2d 41 3a 3d
       0.24076371 0.26967645 0.32827148 0.045472313
000320 27 48 52 3e 3d fe 1e 3d b6 0a 9c 3e 3d 76 d4 3d
       0.20535336 0.03881668 0.30476922 0.10374115
000330 41 e5 86 3e f9 93 29 3e 36 2a 1d 3e 0d d1 23 3e
       0.26346782 0.16560353 0.15348133 0.15997715
000340 68 6d 43 3e 00 dc 77 3e af b6 41 3e 9d 29 58 3e
       0.19084704 0.24205017 0.18917345 0.21109624
000350 a3 63 9e 3c f2 d0 90 3e 15 80 9c 3e 4e e2 9a 3e
       0.01933462 0.28284413 0.3056647 0.30250782
000360 19 74 93 3e 6a 1a 36 3d fb d2 d3 3d c1 c6 9e 3e
       0.28799513 0.044458784 0.10342976 0.31011012
000370 1c 7f 0b 3d a8 4f a5 3e a5 5f 14 3d 98 10 37 3d
       0.034056768 0.32287335 0.036224026 0.04469356
000380 06 c2 7b 3e 12 8b 31 3d 46 96 ff 3d 0b 97 94 3e
       0.24585733 0.04334552 0.12479834 0.29021487
000390 3b 77 96 3e 84 a2 a4 3e 56 15 0e 3e d2 b3 15 3d
       0.2938784 0.3215524 0.13875327 0.036548443
0003a0 7e fa a8 3e 2f 5b 01 3e d6 46 c9 3d 1c 62 50 3e
       0.3300361 0.1263244 0.09827964 0.20349926
0003b0 4c 04 38 3d c6 93 8b 3e fb d9 87 3e ab 22 0e 3d
       0.044925973 0.2726118 0.26533493 0.03470103
0003c0 b8 c7 c8 3c 2c f7 16 3e b4 08 70 3e 52 95 23 3e
       0.024509296 0.14742726 0.2344082 0.1597493
0003d0 da 8a 9a 3d f3 7e 30 3e 7c 51 d3 3b e4 67 2d 3d
       0.07546015 0.17235927 0.0064489227 0.042335406
0003e0 6e 26 65 3d 98 e1 9a 3e 2c c2 9c 3e 5d d3 d5 3d
       0.055944853 0.3025024 0.3061689 0.10440705
0003f0 ca d4 30 3e ef c8 72 3e d4 ac 3c 3e c0 e6 a1 3d
       0.17268673 0.23709463 0.18425304 0.0790534

h2h.weight f4 [100, 100]
000000 4c 6d 2b 3b 27 0a 03 3d c9 fe be 3c 00 f7 17 3c
       0.0026157675 0.031992104 0.02331485 0.009275198
000010 39 00 81 3d c6 68 48 3b c6 76 e3 3c fa 24 fe 3c
       0.062988706 0.0030580028 0.027766597 0.031023491
000020 25 e4 da ba 30 43 6b 3d d2 2e b5 3c a3 20 51 3d
       -0.0016700072 0.057437122 0.022117052 0.051056515
000030 93 87 62 3d 35 48 8c 3d 49 a8 31 3d e6 e1 83 3d
       0.055305075 0.0684971 0.04337338 0.06439571
000040 14 19 8e 3d cf e4 36 3d 9d e8 d9 3c 36 cf c5 3c
       0.06938377 0.044651803 0.026600176 0.024146657
000050 48 e7 2a 3d 4c c2 44 3d 7e 3e 29 bb 2a 82 80 3d
       0.041724473 0.04803686 -0.0025824602 0.06274827
000060 87 8d 2e 3d 35 3c 2b bb 3c a1 3e 3d 1f d7 78 3d
       0.04261544 -0.0026128415 0.046540484 0.06075203
000070 2f 70 44 3d 0a 43 85 3d 23 2b 0e 3d c9 36 16 3b
       0.04795855 0.06506927 0.034709107 0.0022920838
000080 d8 65 08 3d 93 e4 7e 3d b7 ad 82 3c 42 e2 4b 3d
       0.03330025 0.062229704 0.015951974 0.049776323
000090 26 cf 34 3d 14 db de 3c f3 69 0d 3d ef 4d 4c 3d
       0.044142865 0.027204074 0.03452487 0.04987901
0000a0 6b 8b fd 3b e4 4b 78 3d 45 08 6e 3d 99 ae 5e 3d
       0.007737567 0.06061925 0.058113355 0.054365728
0000b0 09 94 97 3d 0d 0e 00 3d 03 d2 07 3c 0b e9 18 3d
       0.07401282 0.0312634 0.008289817 0.037331622
0000c0 1a 06 a4 3c 16 18 48 3d 05 22 88 3d 87 7d 48 3c
       0.02002244 0.048851095 0.06647114 0.012236959
0000d0 83 5b 0a 3d 1b 4d 94 3d 62 95 27 3b 5f 3e e0 3c
       0.03377868 0.07241269 0.0025571217 0.02737349
0000e0 20 65 93 3d 03 91 78 3d 79 58 38 3d d9 72 93 3c
       0.071970224 0.06068517 0.04500625 0.0179991
0000f0 9f 35 f9 3c 04 77 8a ba 85 e1 3e bb a5 3b 06 bb
       0.030421076 -0.0010564034 -0.002912612 -0.0020482328
000100 9d b8 8f 3d f2 ac 82 3d 67 82 49 3d 29 b6 d4 3c
       0.07017634 0.06380643 0.049196627 0.025965767
000110 f2 71 88 3d c0 33 be 3c 20 1b 84 3d c5 7e 06 3d
       0.06662358 0.023218036 0.06450486 0.03283574
000120 d6 42 86 3c f8 eb b6 3c 6b 74 d4 3c e5 60 1f ba
       0.016389292 0.022329316 0.025934419 -0.0006079807
000130 73 a6 47 3d eb 21 c6 3c 57 06 56 3d 3d 5a 6a 3d
       0.048742723 0.024186095 0.05225214 0.057214964
000140 a7 ab 0b 3e 0c cf 71 3e ce 05 43 3e 23 20 87 3e
       0.13639699 0.23614138 0.19045183 0.26391706
000150 f6 fb 73 3d de b4 15 3e 6c 05 de 3d f1 f1 94 3e
       0.05956646 0.14619777 0.10840878 0.29090837
000160 d7 1e b1 3c 65 76 97 3d 61 2b 36 3e bb a8 98 3e
       0.02162115 0.07395629 0.17789985 0.2981623
000170 62 d4 87 3e 78 2f 81 3c 57 0c 51 3d 5b 53 9d 3e
       0.26529223 0.015769705 0.05103716 0.30727658
000180 de ad 3b 3e 12 46 d7 3c 63 f5 e4 3d 23 df 69 3e
       0.18328044 0.02627853 0.11179616 0.22839026
000190 c9 3c d5 3c 86 67 13 3c 10 0c 37 3c 2a df 84 3c
       0.026029961 0.00899685 0.0111723095 0.016219694
0001a0 e8 9e 04 3d 84 93 4e 3d c4 11 58 3d 11 d5 7c 3c
       0.032378107 0.05043365 0.052751318 0.015431658
0001b0 9e 30 e2 3c d3 65 93 3b 8e a8 82 3d c5 88 95 3d
       0.027611073 0.0044982224 0.063798055 0.07301477
0001c0 4c 66 93 3d 93 be 50 3d 7d 57 d5 3c 8b 19 10 3d
       0.07197246 0.050962996 0.026042694 0.03518061
0001d0 6d 69 45 3d 30 00 70 3b bd a0 18 3d f9 7d 71 3b
       0.048196245 0.0036621206 0.037262667 0.0036848767
0001e0 42 e3 88 bb f0 7b 09 3d fb 0f b4 3c c0 85 1c 3c
       -0.004177482 0.03356546 0.021980276 0.009553373
0001f0 18 81 2f 3d b4 7e 10 3d f5 06 26 3d 78 1b 70 3c
       0.042847723 0.035277084 0.04053398 0.014654987
000200 6e 27 5e bb 45 6e 0d 3d 2f 09 98 3c 89 2c b4 3c
       -0.0033898014 0.03452899 0.018559067 0.021993892
000210 21 1f 80 3d 23 88 28 3d d9 65 56 3d e3 97 b9 3c
       0.06255937 0.041145455 0.052343223 0.022655433
000220 1a bc 89 3b d1 d6 29 3d 34 8c 11 3c 4e 41 1e 3d
       0.0042033317 0.04146463 0.008883525 0.0386365
000230 f1 ab 95 3b 8a 93 86 3d 0e aa dc 3b b9 ad 89 3d
       0.004567616 0.065711096 0.0067341393 0.06722588
000240 8e ef 7e 3d 23 30 80 3d 5d 6d 70 3d 16 44 35 3d
       0.062240176 0.06259181 0.058698047 0.044254385
000250 af 7e f6 3c bd c4 0c 3d 9b c9 9d 3c 8d 84 d9 ba
       0.030089704 0.03436731 0.019261172 -0.0016595289
000260 6f c8 8b 3d c0 5a 15 3d 9a 6e 56 3d 81 7c 14 3d
       0.06825339 0.0364635 0.05235157 0.03625155
000270 61 19 3c 3d da 6b 25 3c d0 00 98 3b 8e ec 84 3d
       0.04592264 0.010096515 0.0046387687 0.06490432
000280 3f 6b 48 3d f1 42 5b 3d ab 54 7f bb b4 c7 16 3d
       0.048930403 0.053530637 -0.0038960378 0.036811545
000290 89 f1 09 bb 25 73 f1 3c f5 e9 05 3d 62 e6 09 3c
       -0.0021048507 0.02947385 0.032693822 0.008416744
0002a0 fc 7e 79 bb 7f 3e 0d 3d d8 e9 95 3d 9f 59 8f 3d
       -0.0038070073 0.03448343 0.07319993 0.06999516
0002b0 b0 75 33 3c 9c 0b e2 3c 0c d7 2b 3b 54 bd 8a 3b
       0.010953352 0.027593426 0.0026220707 0.0042339955
0002c0 6a 98 d4 3c ea fa 95 3d 9e 02 cc 3c f4 5f 0f 3d
       0.025951583 0.07323249 0.024903592 0.035003617
0002d0 df 64 9c 3e b0 9e 40 3e bb 00 91 3e a1 1f 86 3e
       0.3054571 0.18810534 0.2832087 0.26196006
0002e0 65 1e 9c 3e 14 3c 3e 3e 67 47 0b 3d ef f1 a7 3c
       0.3049194 0.18577605 0.03400364 0.020501105
0002f0 7d 26 a3 3d 32 76 94 3e df d9 7e 3e d2 e0 51 3e
       0.079663254 0.28996426 0.24887799 0.20495918
000300 2b 49 2a 3d 3b 6c 3e 3d 11 bf 92 3e 89 2a 10 3e
       0.041573685 0.046489935 0.28661397 0.14078726
000310 67 2b a6 3b d4 32 0f 3e 6a e6 f9 3d 77 d9 25 3e
       0.005071092 0.13984233 0.12202151 0.16196238
000320 5a 90 54 3d 29 cb 4c 3d 9d 47 15 3c 5e 17 18 3d
       0.051895477 0.049998436 0.009111312 0.03713166
000330 ea 02 93 3c c8 a6 81 3d 85 58 63 3d 37 07 6f 3d
       0.017945725 0.06330639 0.05550434 0.05835649
000340 02 a9 93 3d 7b 39 5f 3d b4 f3 87 bb a4 8e 3a 3d
       0.0720997 0.054498177 -0.0041489247 0.04554619
000350 fd 66 1d 3c 77 a8 2f 3d a0 14 14 3d 06 04 99 3d
       0.009607074 0.04288527 0.036152482 0.074714705
000360 20 9b 1f 3c 47 f1 5d bb 7e 67 cf 3c 4e 3c 2c 3d
       0.0097415745 -0.0033865736 0.025317904 0.0420497
000370 19 24 83 3d d8 7b 89 3d d7 9e 89 3d dc cb 43 3d
       0.064033695 0.067130744 0.067197494 0.047801837
000380 fb 91 c6 3c 37 29 e3 3c 15 62 6b 3c d6 42 36 3d
       0.02423953 0.027729614 0.014366646 0.044497333
000390 7e ef 14 3c 69 a3 48 3d 38 b1 79 3d 04 41 8c 3d
       0.0090903025 0.048983965 0.060960025 0.06848338
0003a0 35 53 6c bb 18 cc 8b 3d a2 23 24 3c 5b 1c 05 3d
       -0.0036060337 0.06826037 0.010018261 0.032497745
0003b0 f4 0b 91 3d 55 21 66 3d 86 fd ba 3c 06 64 72 3d
       0.07082358 0.05618413 0.022825968 0.05917742
0003c0 f5 c3 2f bb 34 d3 87 3d 19 54 9a 3d 38 ba 0e 3d
       -0.002681968 0.06632081 0.075355716 0.03484556
0003d0 09 f2 2b 3d a2 f3 d8 3c b5 eb 36 3c 18 72 97 3c
       0.04197887 0.02648336 0.011164595 0.018487021
0003e0 61 76 12 3d 44 32 a3 3b 4b 09 a4 3b 6e 6d 24 3d
       0.035757426 0.0049803574 0.0050059906 0.040143423
0003f0 70 04 46 3c ba 86 6d 3c 02 02 0f 3d 32 91 85 3c
       0.012086019 0.014497453 0.034914024 0.016304586

h2h.bias f4 [100]
000000 0c 4e b6 bb e8 00 93 bb 5c 4e 2f bb 6a e4 35 39
       -0.005563503 -0.004486192 -0.0026749587 0.00017346596
000010 41 bb 16 3b 4f 5b 32 3b 18 d9 a5 bb f3 44 bb 3a
       0.0022999796 0.0027215069 -0.00506128 0.0014287516
000020 15 18 04 3b 53 91 a5 bb 02 be e1 bb 73 69 13 bb
       0.0020155956 -0.0050527244 -0.006889106 -0.0022493273
000030 c3 97 a3 bb 97 39 a1 3a aa a0 6b 3b e1 55 43 3b
       -0.0049924566 0.0012300488 0.0035953918 0.0029805826
000040 26 f6 a9 bb 30 42 f8 39 f4 3d 89 bb f2 10 8c bb
       -0.005186814 0.0004735156 -0.0041882936 -0.004274481
000050 0e aa 0e ba c7 94 73 bb 88 59 97 bb d3 19 a3 bb
       -0.000544221 -0.0037167536 -0.0046188273 -0.0049774437
000060 13 49 03 bb e5 41 8c ba 37 e8 84 bb 3f 5a db bb
       -0.002003257 -0.001070079 -0.0040560025 -0.006694108
000070 1c c1 97 bb dd 2d a8 bb bb de 5a 3b e8 48 2f bb
       -0.0046311747 -0.0051324205 0.0033396918 -0.0026746336
000080 24 8e 72 3b ea 6e 7f 3b 3b 1d 9d bb c2 7a a2 bb
       0.0037010992 0.0038976022 -0.0047947443 -0.0049584815
000090 a1 d0 be bb 98 66 bd bb 3d c5 9a bb 33 64 a8 bb
       -0.0058232103 -0.0057800524 -0.0047232197 -0.005138898
0000a0 ab 28 58 bb 42 a3 bb 3a 3c 2d 05 3b 3e 05 a0 bb
       -0.0032983224 0.0014315622 0.0020321151 -0.0048834374
0000b0 e5 58 ad 3b d6 ff cc bb ba eb c5 3b d6 78 c7 bb
       0.005290138 -0.006256084 0.0060400637 -0.006087403
0000c0 71 bd b4 3b e5 d0 bc bb 85 a6 29 3b 1e c4 7f 3b
       0.0055157472 -0.005762207 0.0025886607 0.0039026807
0000d0 7a 3f ba bb 84 b9 d2 bb 8b 28 91 3a 2d ca 15 3b
       -0.0056838365 -0.0064308066 0.0011074705 0.0022856102
0000e0 71 bc fd bb e1 1b 8d bb ce f6 0e 3b d2 94 61 3b
       -0.007743411 -0.004306302 0.0021814588 0.003442098
0000f0 31 62 a7 bb 8d f6 69 3b c0 3f 8d bb 9a 9a aa bb
       -0.005108141 0.0035699934 -0.004310578 -0.005206418
000100 2e 54 21 bb ff ec 54 3b 85 1e 31 3b b8 c9 89 bb
       -0.0024616825 0.0032489893 0.0027026248 -0.004204955
000110 5a 09 93 bb 5a d1 6a 3b 11 8c 9d 3b ae 27 7e 3b
       -0.004487199 0.003583035 0.004807957 0.0038780975
000120 f7 f0 bb bb fe 10 b2 bb 50 23 40 3b 36 c3 a3 bb
       -0.0057355124 -0.0054341545 0.0029317923 -0.004997636
000130 d4 48 e7 ba a3 c8 b1 3b 5e 3f 34 3b 64 0c dd bb
       -0.0017645606 0.005425529 0.002750359 -0.006745862
000140 5e ac 7b 3b 90 7b db 3b ed f5 ee 3b fc d2 98 3b
       0.00384023 0.0066980794 0.0072925 0.004663823
000150 74 11 76 3b f2 a0 c8 3b 0c de b1 3b 98 48 18 3a
       0.0037547024 0.006122702 0.0054280814 0.0005809157
000160 9a 64 bf 3b 5c 87 cd 3b ab c7 87 bb 69 7a db 3b
       0.00584085 0.0062722396 -0.0041436753 0.006697942
000170 48 e5 d1 3b ff 93 90 3b a9 c5 ab 3b 45 bc 62 3b
       0.0064055063 0.0044121738 0.005242069 0.003459708
000180 6a b8 9b 3b b3 42 be bb c8 5f 92 3b 40 d5 98 3b
       0.0047522085 -0.005806291 0.0044669844 0.0046640933

h2o.weight f4 [1, 80]
000000 79 0b b2 3d f7 1f 47 3d 21 b0 e2 3a 9d 07 c9 bd
       0.086935945 0.04861447 0.0017294922 -0.09815905
000010 dc f2 95 ba ac 4c 54 bd 04 ff 81 3c 3b 3a 23 bd
       -0.0011440176 -0.051830932 0.015868671 -0.039850455
000020 c0 a0 7b bd 0a 39 d7 3d 84 db a7 3d f6 83 9e bc
       -0.0614326 0.10508926 0.08196166 -0.019350033
000030 da 6e f7 bc 78 a3 e3 bd 5a 11 92 bd 5d 35 03 bd
       -0.030204225 -0.111151636 -0.07132216 -0.032033313
000040 da 3f 98 3d aa be cc bc be df d7 3d 20 07 d8 3d
       0.07434054 -0.02499326 0.10540722 0.10548234
000050 95 95 0e bc e9 cf 71 3c c8 ae cb 3d d9 85 40 3d
       -0.008702655 0.014759042 0.09945446 0.047002647
000060 ee c8 64 3d 9f d5 bd 3a 30 e7 cd 3c 86 73 b7 3d
       0.055855684 0.001448322 0.025134653 0.08957581
000070 0a ae aa 3d 3e f3 80 3d bd ec c9 bd ef 37 9b 3d
       0.083339766 0.06296395 -0.09859607 0.07579028
000080 29 d2 9f bd c2 13 b8 bd 51 d6 db 3c 46 69 f5 3c
       -0.07803757 -0.089881435 0.026835592 0.029957425
000090 99 2a 8c 3d 5a ad 79 3d eb 86 92 3d 76 c9 01 3d
       0.06844062 0.060956337 0.0715464 0.03168627
0000a0 06 29 8e 3d e5 7b 83 bd 92 ce c2 bd ce d4 a0 3c
       0.06941418 -0.064201154 -0.095120564 0.019632723
0000b0 fa 8c 1b bd fe 15 ae 3c 96 6b aa bb c9 71 87 3d
       -0.037976243 0.021250721 -0.0052008135 0.066135
0000c0 e8 73 ac bd ed b6 3d ba 64 2b 77 bd dc e0 b8 bd
       -0.08420545 -0.0007237036 -0.060344115 -0.090272635
0000d0 a7 c1 12 3d dc a8 c3 3d d5 ed e0 bc 50 82 70 bd
       0.035829213 0.09553692 -0.027457157 -0.058718026
0000e0 3b 32 c9 3d 43 1b 84 3d 17 dd 6e bd 52 75 77 bd
       0.09824034 0.06450512 -0.058316316 -0.06041462
0000f0 1e 2c 13 3d 28 fb d2 bd 0c 40 09 3d 4d 31 b1 3c
       0.035930745 -0.103018105 0.033508345 0.021629954
000100 01 7b b9 bc c5 45 8b bd be 7f 49 bd e2 eb 6d bb
       -0.02264166 -0.06800417 -0.04919409 -0.0036303927
000110 ad 75 92 3d f2 1a a9 bc 92 99 bd bd c8 0e 8b bd
       0.07151351 -0.020642731 -0.09257807 -0.06789929
000120 ce ae 78 3b 04 46 aa 3c 54 7a 3b bc 45 ca 5d 3c
       0.0037945989 0.02078534 -0.0114427395 0.013536994
000130 6c b4 94 3d 7c 04 09 bd cc 25 aa bd 9d 9f af 3d
       0.07260975 -0.033451542 -0.083079904 0.08575366

attn_func.weight f4 [3, 100]
000000 36 54 d2 3b 91 1a a9 3c 80 79 91 3c 30 7c e4 3b
       0.00641873 0.02064255 0.017758131 0.006972812
000010 b8 bd aa 3c 06 af ca 3c da e7 d5 3b f7 13 cb 3c
       0.020842418 0.02474166 0.006527883 0.024789793
000020 70 c8 30 3c de ed 8c 3c e1 13 03 3d d9 6e 2d 3c
       0.0107899755 0.017203268 0.03200138 0.01058551
000030 5e 3d be 3c 2d 91 e2 3b a8 a3 17 3c 9d 4f db 3c
       0.023222622 0.006914279 0.009255327 0.026771361
000040 46 e1 ba 3c bb 9f ad 3b 65 ab c1 3c 80 99 eb 3b
       0.022812497 0.0052985824 0.023641298 0.0071899295
000050 48 73 fb 3c ee 9d 0b 3d 0c bf e1 3c 9a 98 9e 3c
       0.030694619 0.03408616 0.027556919 0.019359875
000060 8d c8 8b 3b 18 08 d6 3c c8 12 45 3c f6 90 49 3c
       0.004265851 0.026126906 0.012028404 0.012302628
000070 2b 93 2c 3c 1a 4a 95 3c 8a bd cf 3c a4 2e 02 3d
       0.010533134 0.018223811 0.025358934 0.03178276
000080 4d f6 a7 3c 86 7a 89 3c 5f 9d ed 3c 16 c8 06 3d
       0.020503188 0.016782057 0.029005704 0.03290566
000090 77 e4 50 3c f2 3e b2 3b da 0f 19 3c ad 5f ad 3c
       0.012749783 0.0054396326 0.009342158 0.021163786
0000a0 43 c4 ee 3b 53 17 a7 3c 46 56 f5 3c b7 dd b2 3c
       0.00728658 0.020396864 0.029948365 0.021834238
0000b0 24 92 af 3c 38 89 d0 3b 2f d9 db 3c 7b 6f c7 3c
       0.02143199 0.006364014 0.02683696 0.02434515
0000c0 c5 27 ec 3b 05 3e 9c 3c f9 5a d6 3c fe a2 15 3c
       0.0072068893 0.019072542 0.026166426 0.009133099
0000d0 72 60 96 3c da b2 9a 3c f1 6c de 3c 29 36 fe 3c
       0.018356536 0.018884111 0.027151557 0.031031685
0000e0 e5 1f 23 3c ac 40 92 3c 11 8d 86 3c 95 72 9d 3c
       0.009956335 0.017853104 0.016424688 0.019219676
0000f0 65 5e 90 3c a9 83 bc 3c b6 61 ef 3c d6 d9 d0 3b
       0.017623136 0.023012 0.029221397 0.0063736243
000100 07 4a c5 3c d0 8d a8 3c 96 71 f4 3c a3 ae 65 3c
       0.02408315 0.020575434 0.029839318 0.014018687
000110 fd 6d 9e 3c da 8c 00 3d ef b6 07 3c 10 50 0c 3c
       0.019339556 0.031384327 0.008283361 0.00856401
000120 3b d5 c2 3b 00 9f 38 3c b1 19 97 3c 2d 80 8e 3b
       0.005945829 0.011268377 0.018444868 0.004348776
000130 b3 14 35 3c b8 2f 8e 3c 29 e8 ec 3c 1b b2 90 3c
       0.011052298 0.017356738 0.028919296 0.017663052
000140 bf 30 c5 3d 0f 46 b5 3d 8c 26 22 3d 7f e0 b3 3d
       0.09628438 0.08851253 0.039587542 0.087830536
000150 09 ba 0d 3d cd 95 83 3d c7 a6 38 3d db 0e 8a 3d
       0.034601245 0.064250566 0.045080926 0.06741115
000160 c1 7e 1a 3d 78 7f a0 3d 91 cf a6 3d 65 73 56 3d
       0.03771854 0.07836813 0.08145059 0.052356143
000170 05 99 60 3b b5 5c 95 3b 1a 6a 15 3d be 06 08 3d
       0.0034270894 0.0045581707 0.03647814 0.033209555
000180 da 15 8e 3d 43 e5 82 3d c4 58 4e 3d a1 b7 91 3d
       0.069377616 0.063913845 0.050377622 0.071151026
000190 71 f0 64 3c ed a4 ba 3c fa 25 86 3c f7 c5 9f 3b
       0.013973341 0.02278372 0.01637553 0.004875894
0001a0 64 73 53 3a f3 71 94 3b 75 a8 b6 3b 82 dc aa 3c
       0.0008066206 0.0045301854 0.005574281 0.0208571
0001b0 f1 15 4a 3c de 9d cc 3a c6 e5 7a bb 9e 41 28 3c
       0.012334333 0.0015611013 -0.0038283928 0.010269551
0001c0 ce 06 c0 3b aa c2 09 3c d1 c0 9c 3c b4 e5 68 3c
       0.005860186 0.008408228 0.01913491 0.014214922
0001d0 b2 15 1e 3c 08 6a 8f 3c ba 6d 62 3c c5 4b 20 3c
       0.009648727 0.017506614 0.013820106 0.00978369
0001e0 73 a3 21 3c 84 d2 9a 3c 8c 57 e9 3a 3d 07 86 3c
       0.0098656295 0.01889921 0.001780258 0.016360873
0001f0 46 e7 06 39 59 e3 4c 39 54 d9 b9 3b 47 d7 1d 3c
       0.00012865392 0.0001953965 0.0056716595 0.009633846
000200 19 83 03 3b 56 52 6d 3b b9 8d 89 3c 81 e9 60 3c
       0.0020067154 0.0036212406 0.016791211 0.013727547
000210 32 14 a3 3c 2b 26 98 3b 95 d9 1c bb c3 ec 16 3c
       0.01990709 0.004643222 -0.00239334 0.009211722
000220 ad fa 7c 3c ff 75 2c 3c 32 d4 19 3b 0c ce e4 3b
       0.015440625 0.010526179 0.0023472426 0.0069825705
000230 29 6e 7c 3c a5 0b e3 3b 46 53 e3 3c f8 92 33 3c
       0.015407124 0.0069288784 0.027749669 0.010960333
000240 4b a1 47 bb b6 84 00 3b 74 61 a3 3c 4d c6 cf 3c
       -0.0030461128 0.0019610352 0.01994393 0.025363112
000250 6b 58 11 3c 73 88 88 3c 23 39 eb 3b ae b0 01 3c
       0.008871178 0.016666627 0.007178442 0.007915659
000260 10 52 9b 3c 96 82 a0 3b 2f a7 47 3b 1c f1 03 3c
       0.018960029 0.0048983796 0.003046464 0.00805309
000270 f1 0c 12 3c 1f f8 ae 3b b4 74 59 3b 31 6f bf 3c
       0.008914218 0.005339637 0.0033181133 0.02336845
000280 eb 22 72 3b 90 78 cf 3c 66 0c c2 3c 08 6d 34 bb
       0.0036947082 0.025326043 0.023687553 -0.0027530808
000290 19 6b 78 3b 4d 69 77 3c 44 c1 83 3c 14 c0 cd 3c
       0.0037905632 0.015100789 0.016083367 0.025116004
0002a0 fe 45 87 39 6f 30 32 b9 6d 14 4f 3c 06 d7 16 3b
       0.00025801355 -0.00016993446 0.012639147 0.0023016348
0002b0 91 a4 b6 3b 87 f1 dd 3b 04 82 cc 3c 2a 22 4d 3c
       0.005573817 0.006773177 0.02496434 0.012520352
0002c0 fd a8 99 3c 61 1b 40 3b a3 f2 be 3b 40 3f a0 3c
       0.018757338 0.0029313194 0.0058272644 0.01956141
0002d0 08 fd 42 3c 31 16 d8 3d 38 b9 93 3b e2 68 9e 3c
       0.011901148 0.10551108 0.004508164 0.019337121
0002e0 45 e3 19 3d 26 e0 d3 3d fb e2 60 3d 68 2e 9e 3d
       0.037570257 0.10345487 0.054903965 0.07723695
0002f0 7d 63 87 3d 84 e7 b3 3d bc 68 a1 3d 93 33 b9 3d
       0.06610773 0.087843925 0.078813046 0.0904304
000300 cc ab 63 3d 53 71 9f 3c ec 95 d4 3d e6 27 10 3d
       0.05558376 0.019463217 0.10380158 0.0351943
000310 13 c1 8b 3d 4d 94 0a 3d af d5 f4 3c 5c e0 45 3c
       0.06823935 0.033832837 0.029887049 0.012077417
000320 58 fc f7 3b b0 72 85 3c 35 36 5f 3b 50 90 f8 39
       0.0075679235 0.016290039 0.003405941 0.00047409767
000330 e7 dc 21 3c c9 4b fe 3b de 1d 90 bb 1f 8f d6 3b
       0.009879327 0.007760499 -0.0043980917 0.006547823
000340 5a 2d a2 3c 29 a4 ba 3c b8 41 cc 3b 6f 00 ab 3c
       0.019797016 0.022783356 0.00623342 0.02087423
000350 46 63 c7 3b fe 1e 76 bb b7 f8 7f 3c 54 c6 ab 3c
       0.0060848324 -0.0037555094 0.015623263 0.020968594
000360 bf a4 91 3b 54 91 71 3a 3e 9e ee 3a 8a a1 cb 3c
       0.004444688 0.0009215076 0.0018205119 0.024857301
000370 f3 94 87 3c f5 b6 c9 b9 12 ae 4b 3c 3f 2f 54 bb
       0.016550517 -0.0003847402 0.012431638 -0.0032376794
000380 9e 94 5a 3c 5d 22 a7 3c 62 b7 50 3b e4 bc 57 3c
       0.013341097 0.020402128 0.0031847586 0.013167594
000390 f7 a6 09 bb 14 fe a9 3c e0 02 2e 3c e1 fc 74 3c
       -0.002100406 0.020751037 0.010620803 0.014952869
0003a0 b5 a2 b4 ba e6 ec c0 3c b3 7e b8 3c 38 5d 56 ba
       -0.0013781401 0.023550462 0.022521352 -0.0008177343
0003b0 11 9c 23 bb a0 41 4a bb bc f7 6c 3b 97 13 5f 3a
       -0.002496485 -0.003086187 0.0036158403 0.0008509694
0003c0 d0 6c 7a 3c 43 0b e5 3c 8e 2a 23 3c d8 f5 87 3c
       0.015284732 0.027959472 0.009958876 0.01659672
0003d0 85 a2 a9 3c 25 ce 95 3c 65 9c 4e bb 2c 39 46 3c
       0.020707378 0.018286774 -0.0031526324 0.012098592
0003e0 f4 66 89 3c e0 17 bb 3c c1 e0 ce 3c 37 39 21 3b
       0.016772725 0.022838533 0.025253655 0.0024600753
0003f0 2c c7 19 bb 06 1d 11 3c ac 0d a7 3c d6 fc dd 3b
       -0.0023464663 0.008857017 0.020392261 0.006774525

attn_func.bias f4 [3]
000000 18 a5 a3 3b 30 05 2b bb 38 56 0d bb
       0.004994046 -0.0026095621 -0.0021566283
