exp/test/checkpoint.pth.tar (torch, 47955 bytes, 6 tensors)

x2h.weight f4 [100, 9]
-0.508532 -0.25007728 -0.21799365 -0.536495 -0.03338906 -0.20306298 -0.32659078 -0.53636545
-0.23738155 0.093225025 -0.2591048 -0.08381842 -0.07409017 0.5474246 0.070353374 0.14135505
-0.23232415 -0.3869205 0.22516635 0.057591155 0.28656206 0.073662505 -0.22097045 0.2630736
0.35849592 -0.05864535 -0.7485193 -0.48215267 0.006243774 -0.20591483 -0.26602328 -0.043874405
0.6303863 -0.024043929 0.04926091 -0.2578183 0.057398096 0.017205615 0.05217714 -0.1585596
-0.03700661 0.10116595 -0.052615054 -0.009595714 0.7809757 -0.3457796 0.51591873 -0.20994908
-0.30913058 0.17053151 0.018039713 -0.14568004 0.247109 0.14278574 0.38092923 0.66950166
0.04197455 0.30175495 -0.062000364 -0.21487978 0.50270855 -0.28986254 -1.1103846 -0.24929075
-0.008500821 -0.3411102 -0.19872838 -0.33517691 -0.070202105 -0.0025158427 0.5589509 -0.006381674
-0.23465222 -0.061755266 -0.33207837 -0.2770851 -0.153674 -0.18669415 0.12126393 -0.32742572
-0.16882887 0.024285479 -0.21799114 0.24779138 -0.47812864 -0.1669377 0.0421625 -0.053331044
0.076511 -0.1673191 -0.3470667 0.23173778 -0.3494467 -0.15695907 0.08298259 0.6526992
0.20662093 0.3942866 0.25392032 -0.30450788 0.44367483 -0.27128208 -0.30919218 0.3628336
0.43419233 0.19809149 -0.034480695 -0.050405644 -0.7006943 -0.20667398 -0.49274367 -0.37780583
0.2962874 -0.18675314 0.4331683 0.27397755 0.05166408 0.098347746 0.15924335 -0.14372835
0.84705824 -0.077787966 -0.00449071 0.6075027 -0.66013545 0.58669925 0.029837186 0.10716756
0.2316631 -0.5921691 0.10841258 0.4031234 -0.10099914 -0.5872806 0.21066047 -0.2681197
-0.53703725 -0.62387097 0.1747052 0.20438477 0.75686145 0.21374376 0.5615422 -0.5980911
-0.4544224 -0.3277399 0.50443983 0.20565617 0.15292506 -0.14286336 0.17108288 -0.51579034
0.15819399 0.028792331 0.08011399 0.44251314 0.57331544 0.6182963 -0.23545638 0.8404297
0.14445065 -0.07090621 -0.27998602 -0.14000596 -0.2080121 -0.32576537 0.2849748 0.33240664
0.08858612 0.50815654 0.39774963 -0.605197 -0.13448718 -0.31971508 -0.0017359013 -0.026287712
0.27879578 0.37509394 0.1832273 0.52859205 -0.32132542 0.038182482 -0.054553654 -0.11940753
0.5549922 -0.10119187 0.05884728 0.44919574 0.034650464 0.35897043 -0.113893405 0.31036934
-0.18950532 0.26479322 0.57899654 -0.06514156 0.16114385 -0.6158259 -0.97224754 -0.18910997
-0.18042675 0.29351905 -0.294169 0.16870521 -0.5152591 -0.05776661 0.22527024 0.010530061
0.28604615 0.34434187 -0.17353234 0.43917328 0.0722828 0.6238628 0.6103114 0.4305279
-0.32300305 0.4060787 0.40143546 -0.17597353 0.06166436 -0.19143575 0.4751267 0.5867573
0.54110473 -0.14400153 -0.090342306 -0.4797209 0.40406632 0.41256836 0.12665756 0.11610952
-0.026609574 0.1034388 0.30836418 -0.461312 0.5699529 -0.7882551 -0.3098303 0.09870349
0.060418792 0.31332007 0.48355472 -0.18549147 -0.24828027 -0.06738574 -0.07655597 -0.0055492707
0.12538065 -0.19368932 -0.19076961 0.32769936 -0.035216466 -0.393232 -0.030259866 0.1751856
00000000: 272f 02bf 210a 80be ba39 5fbe bc57 09bf
00000010: f8c2 08bd beef 4fbe e836 a7be 3f4f 09bf
00000020: 2614 73be c3ec be3d 62a9 84be fea8 abbd
00000030: 96bc 97bd 0524 0c3f 6e15 903d 61bf 103e
00000040: 62e6 6dbe 721a c6be 0292 663e b4e4 6b3d
00000050: 43b8 923e 5edc 963d 1446 62be 95b1 863e
00000060: c78c b73e 1b36 70bd f69e 3fbf b7dc f6be
00000070: 9398 cc3b 56db 52be 3434 88be a6b5 33bd
00000080: ff60 213f c6f7 c4bc cfc5 493d c300 84be
00000090: 441a 6b3d caf2 8c3c b2b7 553d 735d 22be
000000a0: 3e94 17bd 1830 cf3d e282 57bd 5737 1dbc
000000b0: 06ee 473f 060a b1be 4013 043f e4fc 56be
000000c0: 5d46 9ebe d09f 2e3e 05c8 933c 262d 15be
000000d0: 240a 7d3e 6d36 123e 2809 c33e 7664 2b3f
000000e0: 81ed 2b3d a07f 9a3e 18f4 7dbd 7209 5cbe
000000f0: 82b1 003f dd68 94be 1521 8ebf 1346 7fbe
00000100: 0747 0bbc ffa5 aebe 747f 4bbe 4f9c abbe
00000110: 1fc6 8fbd d6e0 24bb 6817 0f3f 5d1d d1bb
00000120: ac48 70be 17f3 7cbd 2d06 aabe 19de 8dbe
00000130: b85c 1dbe c02c 3fbe 3959 f83d 58a4 a7be
00000140: 7ae1 2cbe 57f2 c63c 1239 5fbe 06bd 7d3e
00000150: 47cd f4be b7f1 2abe 96b2 2c3d a771 5abd
00000160: cdb1 9c3d b355 2bbe bab2 b1be ab4c 6d3e
00000170: aeea b2be e1b9 20be c7f2 a93d 4b17 273f
00000180: 7094 533e efdf c93e d801 823e 75e8 9bbe
00000190: 5929 e33e 7ce5 8abe 704e 9ebe 53c5 b93e
000001a0: 754e de3e 7fd8 4a3e a13b 0dbd 2676 4ebd
000001b0: b460 33bf 58a2 53be e648 fcbe c46f c1be
000001c0: fbb2 973e 373c 3fbe 3cc8 dd3e c946 8c3e
000001d0: b79d 533d 8b6a c93d b010 233e 862d 13be
000001e0: cfd8 583f 4c4f 9fbd ce26 93bb 4c85 1b3f
000001f0: a3fe 28bf ec31 163f 1d6d f43c aa7a db3d
00000200: 1739 6d3e 6598 17bf 6a07 de3d 3166 ce3e
00000210: a3d8 cebd 0558 16bf 61b7 573e fc46 89be
00000220: 467b 09bf 02b6 1fbf ece5 323e 3e4a 513e
00000230: acc1 413f a5df 5a3e 3bc1 0f3f 801c 19bf
00000240: 0eaa e8be 86cd a7be f822 013f 8897 523e
00000250: 6398 1c3e c64a 12be 5a30 2f3e d60a 04bf
00000260: 9bfd 213e e5dd eb3c ce12 a43d 1591 e23e
00000270: cdc4 123f ab48 1e3f 7a1b 71be 6726 573f
00000280: dfea 133e 4637 91bd 545a 8fbe b95d 0fbe
00000290: 2001 55be b8ca a6be 38e8 913e 3431 aa3e
000002a0: a46c b53d 8c16 023f d7a5 cb3e 31ee 1abf
000002b0: 02b7 09be b2b1 a3be 2f87 e3ba 5459 d7bc
000002c0: 52be 8e3e 500c c03e f09f 3b3e cf51 073f
000002d0: c484 a4be 3c65 1c3d a773 5fbd ef8b f4bd
000002e0: f813 0e3f af3d cfbd d809 713d fcfc e53e
000002f0: a5ed 0d3d f9ca b73e f240 e9bd bbe8 9e3e
00000300: af0d 42be fa92 873e 1e39 143f f068 85bd
00000310: e502 253e c4a6 1dbf 37e5 78bf 0ba6 41be
00000320: cac1 38be 2148 963e 529d 96be 0fc1 2c3e
00000330: 05e8 03bf ae9c 6cbd 3ead 663e 4786 2c3c
00000340: a474 923e 944d b03e 76b2 31be 52db e03e
00000350: 0109 943d 79b5 1f3f 5e3d 1c3f 276e dc3e
00000360: a860 a5be 8ce9 cf3e f388 cd3e 6832 34be
00000370: c593 7c3d bc07 44be cf43 f33e ba35 163f
00000380: d785 0a3f 2375 13be 6305 b9bd fa9d f5be
00000390: c8e1 ce3e 293c d33e 85b2 013e d4ca ed3d
000003a0: 52fc d9bc b9d7 d33d e9e1 9d3e 1631 ecbe
000003b0: 6fe8 113f 16cb 49bf 14a2 9ebe 0e25 ca3d
000003c0: b279 773d 7d6b a03e 7c94 f73e 7af1 3dbe
000003d0: 2f3d 7ebe 8901 8abd 60c9 9cbd a8d6 b5bb
000003e0: c963 003e 7e56 46be 1c59 43be 36c8 a73e
000003f0: 243f 10bd b455 c9be 8ae3 f7bc db63 333e

h2h.weight f4 [100, 100]
-0.062188752 0.033585418 -0.014914691 0.0025812618 -0.014106508 0.031235058 -0.0066161677 0.046298753
-0.03360397 0.0036678573 -0.023552267 -0.023963772 -0.033653896 -0.022787154 -0.00043031163 0.024265135
0.013215551 0.017748723 0.0052198875 -0.0005408971 0.036699027 -0.02855395 0.012082583 -0.043246824
0.02156907 -0.0505684 -0.018214181 -0.042924304 -8.7311986e-05 -0.0033253266 0.020749655 -0.006246785
0.019084197 0.019604117 -0.038354434 -0.004244367 -0.032134444 0.072939366 0.0072711115 0.025857223
-0.0023520805 -0.033722457 -0.04952345 0.013599402 0.006112725 0.022606166 0.00433146 -0.0012663451
-0.0071941605 -0.03760524 -0.03355009 0.018169606 -0.037707385 -0.01525918 -0.0068141334 0.010164572
0.069017686 0.03725853 0.021296155 0.0029009762 -0.051571876 0.013859414 -0.0531826 -0.028886225
0.022272155 0.001894946 -0.035115663 0.044556815 0.0073217177 0.021740444 0.008468437 0.05727634
0.004961108 0.038842253 -0.0130037535 -0.018164704 -0.014702575 0.00010240252 0.017446052 -0.006221527
-0.14324912 -0.014225659 -0.0063220104 -0.007863457 -0.095951855 0.049558427 0.0593644 0.08961786
0.026072875 -0.04026236 -0.10113726 0.18186526 0.06325511 0.045700453 -0.049980454 -0.00052815984
0.32431123 -0.17180301 -0.059769724 0.057931475 -0.036245946 -0.01018699 -0.030207848 -0.0052476884
-0.005957962 -0.0032328912 0.0123257 0.02516819 -0.020791331 -0.001310852 -0.015703844 0.0006211364
-0.006313131 -0.026806574 -0.00027795017 -0.022968262 0.030110886 0.01080305 0.013512317 0.013261832
-0.004421823 -0.019398585 0.011190458 -0.0094211865 0.022931857 -0.025508426 0.025824493 -0.010523776
0.043517664 -0.055994093 -0.0046216566 -0.0380083 -0.019471351 -0.0007030051 0.008549947 0.003851878
-0.014878481 -0.009195724 -0.04942092 -0.004402093 -0.024678865 0.021577785 0.0040998636 -0.005390689
0.034500748 -0.045849472 0.00903353 0.02184552 -0.0056430586 -0.025379883 0.014859047 0.0011963081
-0.007164856 -0.00094816176 -0.00074329966 -0.01043663 -0.0041107195 0.006960145 0.006181495 0.00073497335
0.014967854 -0.069058985 0.011819692 0.019923303 -0.0019417736 0.023200518 0.006090139 -0.03169174
-0.0051079514 -0.04127895 0.006296514 0.0054311478 0.06205449 -0.01924193 -0.058152407 -0.04157385
-0.0035301924 -0.005207231 0.030606633 -0.030145774 -0.00010132683 0.073333256 -0.0016373653 0.03099318
-0.053946253 -0.05501071 0.17281958 0.012739818 0.016008347 -0.10104366 -0.108184025 -0.1301642
0.16127759 0.19230084 -0.0019608426 -0.13576524 0.052531008 0.13152456 0.11026121 -0.2008422
0.05067898 -0.001184775 0.00054931646 -0.018818611 -0.012038706 -0.020038562 -0.021696195 -0.07679162
0.016602814 0.017944522 0.0005262639 -0.03611611 0.007782568 -0.0041216686 -0.027963256 0.012922416
-0.0035011952 -0.014809039 0.010884617 -0.0018271067 -0.004298543 -0.04094541 0.03317667 -0.06033893
-0.0044925413 0.0422231 0.0579928 -0.02965806 0.0073372573 -0.00580903 -0.017608091 -0.0063841026
-0.0050440454 0.025911756 0.038438693 -0.01065096 0.0241748 0.022401461 -0.005523074 0.020932177
-0.027835472 0.018241985 0.0013138544 -0.017437901 0.007450145 0.042666476 -0.06373193 -0.0046597095
0.057302777 -0.005051721 0.006974879 -0.01988491 0.00018781173 0.016168991 -0.00030296337 0.013842374
00000000: a2b9 7ebd dd90 093d c05c 74bc 632a 293b
00000010: fc1e 67bc aae0 ff3c 70cc d8bb c3a3 3d3d
00000020: 51a4 09bd 6f60 703b aff0 c0bc ac4f c4bc
00000030: abd8 09bd 20ac babc 739b e1b9 adc7 c63c
00000040: 0a86 583c c565 913c 970b ab3b fdca 0dba
00000050: b851 163d f9e9 e9bc 07f6 453c 9523 31bd
00000060: 9eb1 b03c d020 4fbd e835 95bc 65d1 2fbd
00000070: 441b b7b8 b9ed 59bb 2efb a93c d5b1 ccbb
00000080: 7656 9c3c d098 a03c 8a19 1dbd 5514 8bbb
00000090: 689f 03bd 3c61 953d 8142 ee3b 87d2 d33c
000000a0: 5d25 1abb 8f20 0abd 1ad9 4abd 07d0 5e3c
000000b0: 414d c83b 9130 b93c ecee 8d3b 7efb a5ba
000000c0: febc ebbb f407 1abd d26b 09bd 6dd8 943c
000000d0: 0f73 1abd a401 7abc 1849 dfbb 4e89 263c
000000e0: 2559 8d3d 669c 183d 4675 ae3c 4e1e 3e3b
000000f0: 083d 53bd 9812 633c ffd5 59bd cea2 ecbc
00000100: 1874 b63c d65f f83a 71d5 0fbd 3581 363d
00000110: 05eb ef3b 0419 b23c 33bf 0a3c 989a 6a3d
00000120: ca90 a23b 0e19 1f3d b20d 55bc 25ce 94bc
00000130: 12e3 70bc efc0 d638 06eb 8e3c f3dd cbbb
00000140: e6af 12be bd12 69bc de28 cfbb bbd5 00bc
00000150: 6882 c4bd c7fd 4a3d 1628 733d 9289 b73d
00000160: c896 d53c 25ea 24bd 0d21 cfbd e33a 3a3e
00000170: e58b 813d 6630 3b3d 4eb8 4cbd 3574 0aba
00000180: 1f0c a63e 21ed 2fbe 19d1 74bd 8e49 6d3d
00000190: a176 14bd 55e7 26bc 7376 f7bc cdf4 abbb
000001a0: 023b c3bb eade 53bb bcf1 493c 852d ce3c
000001b0: 9552 aabc e5d0 abba 59a5 80bc c2d3 223a
000001c0: 62de cebb 7699 dbbc d7b9 91b9 f027 bcbc
000001d0: 1bab f63c 47ff 303c c462 5d3c 2848 593c
000001e0: f1e4 90bb c8e9 9ebc 2f58 373c 525b 1abc
000001f0: 97db bb3c 0cf7 d0bc e38d d33c ea6b 2cbc
00000200: 943f 323d 105a 65bd 4471 97bb 97ae 1bbd
00000210: 6282 9fbc e049 38ba 1415 0c3c ca6f 7c3b
00000220: dfc4 73bc a9a9 16bc 976d 4abd 6f3f 90bb
00000230: 552b cabc e5c3 b03c 2658 863b 60a4 b0bb
00000240: a850 0d3d a8cc 3bbd 5f01 143c 60f5 b23c
00000250: 68e9 b8bb 79e9 cfbc 5c73 733c 70cd 9c3a
00000260: 2bc7 eabb 0f8e 78ba ffd9 42ba 66fe 2abc
00000270: 37b3 86bb ee11 e43b 238e ca3b 3aab 403a
00000280: bb3b 753c cc6e 8dbd 62a7 413c 3236 a33c
00000290: 1c83 feba 030f be3c ca8f c73b 33cf 01bd
000002a0: 9a60 a7bb 1e14 29bd fd52 ce3b c5f7 b13b
000002b0: d92c 7e3d 41a1 9dbc 3831 6ebd 5749 2abd
000002c0: cd5a 67bb 6ba1 aabb c3ba fa3c 45f4 f6bc
000002d0: 6d7f d4b8 bf2f 963d dd9c d6ba 69e5 fd3c
000002e0: bff6 5cbd e952 61bd 9ef7 303e abba 503c
000002f0: f023 833c faef cebd 968f ddbd c449 05be
00000300: f425 253e 83ea 443e 7b81 00bb 0b06 0bbe
00000310: c12a 573d 60ae 063e a1d0 e13d 94a9 4dbe
00000320: c394 4f3d 744a 9bba 0100 103a 7d29 9abc
00000330: fe3d 45bc e927 a4bc 38bc b1bc ed44 9dbd
00000340: a002 883c 6400 933c f9f4 093a 7cee 13bd
00000350: ea04 ff3b 100f 87bb 3313 e5bc 8bb8 533c
00000360: 4f74 65bb 9da1 72bc 6555 323c 877b efba
00000370: cbda 8cbb 60b6 27bd 43e4 073d f425 77bd
00000380: 2b36 93bb 21f2 2c3d dc89 6d3d 76f5 f2bc
00000390: 606d f03b ad59 bebb d83e 90bc bc31 d1bb
000003a0: 8548 a5bb e444 d43c e471 1d3d 5d81 2ebc
000003b0: 3b0a c63c 4583 b73c e7fa b4bb f579 ab3c
000003c0: 3707 e4bc 3770 953c a335 ac3a eed9 8ebc
000003d0: 5920 f43b 0bc3 2e3d e385 82bd 7ab0 98bb
000003e0: 51b6 6a3d e888 a5bb 878d e43b aee5 a2bc
000003f0: 54ef 4439 d574 843c 0ed7 9eb9 20cb 623c

h2h.bias f4 [100]
-0.0063846903 -0.0130899465 -0.00953345 -0.0064389147 -0.0039662444 -0.011521544 -0.007030448 -0.008682238
-0.009067701 -0.010564721 -0.015538735 -0.01496176 -0.0025384377 -0.012990017 -0.008181209 -0.013970723
-0.012500756 -0.008196866 -0.008908417 -0.011510712 -0.0046183723 -0.013501869 -0.014233252 -0.014786558
-0.010948991 -0.014443597 -0.00926633 -0.007404084 -0.012164359 -0.011999688 -0.013859706 -0.010559679
-0.009130653 -0.010384017 -0.01586604 -0.012655323 -0.0151513 -0.01167297 -0.015097359 -0.011287966
-0.011205167 -0.0088854525 -0.004548106 -0.013665141 -0.0063771764 -0.015721668 0.0043531475 -0.010144807
0.0034192367 -0.009884871 -0.009805666 -0.013201259 -0.012174306 -0.0071787653 -0.00016454761 -0.015496075
-0.008020305 -0.0076244846 -0.011595174 -0.010605106 -0.01595312 -0.01338998 -0.011995905 -0.013349615
-0.0101195155 -0.0072018695 -0.013484072 -0.0046973363 -0.008102441 -0.01166993 -0.009237385 -0.010864706
-0.008042797 -0.012855556 -0.009751405 -0.012258671 -0.008760222 -0.015529114 -0.011675065 -0.013380805
0.009405668 0.01200053 0.012374986 0.007954503 0.0068313777 0.024829675 0.009345811 0.012154214
0.009068346 0.0053843306 0.013004678 0.0128934905 0.008801271 0.009681791 0.010137012 0.008087275
-0.010227371 0.011405985 0.013185566 0.004340532
00000000: aa36 d1bb 3777 56bc 3032 1cbc 88fd d2bb
00000010: 45f7 81bb dcc4 3cbc ac5f e6bb f23f 0ebc
00000020: b290 14bc a717 2dbc 2e96 7ebc 2b22 75bc
00000030: eb5b 26bb 15d4 54bc 7a0a 06bc 76e5 64bc
00000040: f9cf 4cbc 264c 06bc 9cf4 11bc 6d97 3cbc
00000050: b755 97bb f136 5dbc 9632 69bc 5243 72bc
00000060: 6663 33bc d6a4 6cbc ced1 17bc f59d f2bb
00000070: 054d 47bc 579a 44bc d213 63bc 8102 2dbc
00000080: bc98 15bc b921 2abc 7ff9 81bc 4658 4fbc
00000090: 283d 78bc fc3f 3fbc ea5a 77bc 29f1 38bc
000000a0: e095 37bc 4a94 11bc 4708 95bb c1e3 5fbc
000000b0: a2f7 d0bb baca 80bc d9a4 8e3b 6836 26bc
000000c0: 4615 603b 27f4 21bc f2a7 20bc 184a 58bc
000000d0: be76 47bc d93b ebbb 6a8a 2cb9 40e3 7dbc
000000e0: 9967 03bc d0d6 f9bb aff9 3dbc 0ac1 2dbc
000000f0: 1eb0 82bc a661 5bbc 798a 44bc 58b8 5abc
00000100: 53cc 25bc a9fd ebbb 4cec 5cbc 1dec 99bb
00000110: 1ac0 04bc 3c33 3fbc 6758 17bc e101 32bc
00000120: f0c5 03bc 1ca0 52bc 5bc4 1fbc 98d8 48bc
00000130: 0987 0fbc d36d 7ebc c648 3fbc 2a3b 5bbc
00000140: 3b1a 1a3c df9d 443c 74c0 4a3c 9b53 023c
00000150: c0d9 df3b 9a67 cb3c 2c1f 193c 7822 473c
00000160: 6693 143c 0a6f b03b 9311 553c 383f 533c
00000170: 3533 103c 60a0 1e3c b615 263c 7d80 043c
00000180: b490 27bc 2be0 3a3c 4608 583c 053b 8e3b

h2o.weight f4 [1, 100]
-0.005382922 -0.02327978 -0.048766207 0.05647311 0.016106537 0.007760361 0.044775452 0.022091603
-0.046455313 -0.0040761433 -0.050620142 -0.037842557 -0.016805638 -0.029104773 0.025396515 -0.03036933
-0.003700757 -0.007213399 0.024029193 -0.026309296 -0.023917276 -0.030192845 -0.04473219 -0.005057556
-0.012710218 -0.0014720014 0.00897217 -0.022505928 0.030912803 -0.02956045 -0.002122183 -0.03279076
0.0007719904 -0.00846976 -0.00069766014 -0.0009885627 -0.014904777 0.046133485 -0.010543921 -0.013429335
-0.0039228112 -0.026150556 0.015421429 -0.0036723202 -0.0329622 0.008893472 -0.021267863 -0.012146668
-0.02403356 -0.012502477 -0.019293357 -0.024424445 0.01338096 -0.016010404 0.010841149 0.0040934742
-0.005178839 -0.010719135 -0.0047808546 -0.013201936 -0.039828017 0.016760815 -0.0062888716 -0.008423904
-0.007220526 -0.0075822338 -0.028078612 0.02095796 -0.004207344 -0.01997668 0.021403491 -0.0073574604
-0.028929325 0.0058210427 -0.0033423954 -0.00045393102 -0.0037470688 -0.023043294 0.00084651087 -0.0047882465
-0.16432597 0.13336864 -0.0021629608 0.024264405 -0.2886382 -0.048702966 0.020475596 0.021288902
-0.012579558 0.017386267 -0.11687026 -0.026686754 -0.15278125 -0.06579502 0.009468176 -0.044641286
-0.12966965 0.034287542 -0.04080312 -0.17497805
00000000: 3963 b0bb 3db5 bebc 13bf 47bd 5950 673d
00000010: dbf1 833c a04a fe3b 7766 373d 73f9 b43c
00000020: ed47 3ebd 2b91 85bb 1157 4fbd cc00 1bbd
00000030: faab 89bc 226d eebc 5a0c d03c 1ac9 f8bc
00000040: 6688 72bb 605e ecbb dfd8 c43c 9886 d7bc
00000050: 2aee c3bc fc56 f7bc 1a39 37bd dbb9 a5bb
00000060: 853e 50bc 2cf0 c0ba 0200 133c 5a5e b8bc
00000070: d93c fd3c c228 f2bc 5314 0bbb 9b4f 06bd
00000080: 665f 4a3a c0c4 0abc 2ee3 36ba a992 81ba
00000090: 2a33 74bc 77f6 3c3d 69c0 2cbc b706 5cbc
000000a0: ed8a 80bb b139 d6bc 29aa 7c3c 4fab 70bb
000000b0: 5f03 07bd edb5 113c f139 aebc d102 47bc
000000c0: 07e2 c4bc 30d7 4cbc 1a0d 9ebc c615 c8bc
000000d0: d03b 5b3c 4028 83bc 139f 313c 8d22 863b
000000e0: 40b3 a9bb 509f 2fbc b7a8 9cbb ef4c 58bc
000000f0: b422 23bd fa4d 893c e112 cebb 6a04 0abc
00000100: 2a9a ecbb 6374 f8bb 1e05 e6bc 07b0 ab3c
00000110: c2dd 89bb 22a6 a3bc 6056 af3c da16 f1bb
00000120: 31fd ecbc 72be be3b 170c 5bbb 97fd edb9
00000130: 6291 75bb 4ac5 bcbc 62e8 5d3a b9e6 9cbb
00000140: 1145 28be ca91 083e 76c0 0dbb 25c6 c63c
00000150: 63c8 93be c37c 47bd 70bc a73c 1066 ae3c
00000160: 7e1a 4ebc a56d 8e3c ad59 efbd 2e9e dabc
00000170: b072 1cbe 8abf 86bd 6920 1b3c c8d9 36bd
00000180: 1fc8 04be 1871 0c3d 2c21 27bd 722d 33be

attn_func.0.weight f4 [3, 100]
-0.013201788 -0.028250845 -0.01523636 0.03824549 0.051174663 -0.016749319 -0.026875714 0.026082074
-0.0015266482 0.012475667 -0.025202785 -0.027254675 0.018870581 -0.021213569 -0.0061728456 -0.016223274
0.026963692 -0.00749333 -0.05268939 0.022867568 -0.010960322 0.0030077887 0.0075629605 -0.016053198
0.01427589 0.03359614 -0.016623428 -0.0053871837 0.0057403217 -0.005767393 -0.014638321 0.020678857
-0.04068452 0.02994667 0.04559159 -0.011080676 -0.0093626045 -0.015592461 -0.033086568 -0.036367603
0.014091828 0.012133183 0.012104769 0.022041963 0.04272885 -0.014740738 -0.015993694 0.014959431
0.013525908 -0.028390007 0.020865452 0.029330628 -0.0171323 -0.0042008096 -0.0033754478 0.009936488
-0.03336444 0.014433462 0.05300348 0.011699687 0.010176933 0.013051882 0.014874015 -0.015310911
-0.007969064 0.031253256 0.02720245 -0.017584365 -0.0148785105 0.010504651 0.032476235 -0.0033064424
-0.03179014 0.018738179 0.036734246 0.03471736 0.020477282 0.031767465 0.035266556 -0.009829268
-0.03194669 -0.0611956 -0.048925225 0.029000755 -0.086049326 0.13173544 0.0594356 0.008640647
0.12947956 -0.15548332 0.048463132 -0.015328544 0.054335747 0.041118965 0.08800048 -0.067544356
-0.11486448 0.0532488 0.0208272 0.032851815 0.026193764 0.021658584 0.016018847 0.010160257
0.057003148 0.008896098 0.02591639 0.018148195 -0.0061990567 0.027818233 -0.0051587243 -0.0071887253
-0.0072071664 -0.007450877 -0.00032001833 0.012614018 -0.05440771 -0.002094961 -0.0028064044 -0.0012076733
0.0071034925 0.010757185 0.041168533 -0.030769128 -0.018394813 -0.011163409 0.016163481 0.039160784
-0.012650574 -0.009425635 0.008118854 -0.0018962267 0.019436168 -0.021401657 0.013126622 0.02607076
-0.03244398 -0.006089033 -0.055316623 -0.006515439 -0.013591206 -0.0055973656 0.056029998 -0.011949456
0.026373561 -0.032325275 -0.019714283 0.01721227 -0.011258448 0.02424815 0.026559183 -0.009200512
0.015690895 0.0077741873 -0.00666392 -0.0036876677 0.01017685 -0.004388492 -0.021081453 0.0018986317
0.060699202 0.01200449 -0.0039587026 -0.027355326 0.035310276 -0.01867627 0.0045103566 -0.0039473143
-0.005998559 -0.020759461 0.009913174 -0.01608847 -0.0010557661 0.007732199 -0.0089131575 0.029289782
0.018859088 0.008980528 0.050605107 0.013295317 0.060331035 -0.01996523 0.1875214 -0.15858893
0.044845376 0.021487443 0.12800375 0.12446243 0.10762784 -0.009297524 -0.10590083 -0.16911283
0.042332996 0.11856296 -0.15739487 -0.002887606 -0.13299555 0.14717984 0.102533825 0.26926836
0.036779292 0.021428328 -0.013237191 -0.006281302 -0.0025539552 -0.002188561 0.038050037 0.008361461
0.012590336 0.039265916 0.03030243 0.017726948 -0.015767692 0.017244276 0.027734434 -0.0030105694
-0.018933766 -0.019510455 -0.005545423 0.011879097 -0.018256292 0.017259724 -0.0072308695 -0.020805398
0.0071607167 -0.047771282 0.012698293 -0.0050090724 0.0043104766 -0.012613599 0.031031929 -0.015643135
-0.0030094313 -0.022154408 0.026241666 -0.0034727317 -0.06551805 -0.007162844 -0.0059279073 0.018117413
0.01245358 0.01384743 0.0052253827 -0.003985633 -0.002553058 0.02141812 0.0060142535 0.013053505
-0.00017696788 0.033063095 -0.003434475 0.056475617 0.014052077 0.029112775 0.023008771 -0.00500792
00000000: 504c 58bc 516e e7bc eda1 79bc 4ea7 1c3d
00000010: 869c 513d de35 89bc 752a dcbc 13aa d53c
00000020: d019 c8ba bd66 4c3c 1276 cebc 3245 dfbc
00000030: 7a96 9a3c 14c8 adbc 9545 cabb ace6 84bc
00000040: f6e2 dc3c 9c8a f5bb d4d0 57bd c454 bb3c
00000050: ec92 33bc 521e 453b b6d2 f73b ff81 83bc
00000060: 6ce5 693c 1b9c 093d db2d 88bc f986 b0bb
00000070: 4f19 bc3b 66fc bcbb 91d5 6fbc b566 a93c
00000080: d0a4 26bd b852 f53c 3fbe 3a3d b98b 35bc
00000090: 9c65 19bc 8677 7fbc c885 07bd 32f6 14bd
000000a0: 69e1 663c 42ca 463c 1553 463c 5991 b43c
000000b0: 7204 2f3d 2383 71bc 3505 83bc 6718 753c
000000c0: c59b 5d3c 2992 e8bc 06ee aa3c c946 f03c
000000d0: 0a59 8cbc f2a6 89bb 9e36 5dbb a7cc 223c
000000e0: 27a9 08bd 547a 6c3c 2d1a 593d 0bb0 3f3c
000000f0: 27bd 263c 90d7 553c 24b2 733c 9eda 7abc
00000100: ad90 02bc 6a03 003d acd7 de3c 160d 90bc
00000110: ffc4 73bc b31b 2c3c cd05 053d e6b0 58bb
00000120: 6136 02bd cf80 993c a676 163d ca33 0e3d
00000130: f9bf a73c 9a1e 023d aa73 103d f00a 21bc
00000140: 88da 02bd 3da8 7abd d165 48bd fe92 ed3c
00000150: a13a b0bd a8e5 063e be72 733d 8091 0d3c
00000160: 4a96 043e 0537 1fbe 4781 463d 9324 7bbc
00000170: 298f 5e3d 5c6c 283d 9839 b43d b254 8abd
00000180: 123e ebbd 6a1b 5a3d ce9d aa3c a08f 063d
00000190: 4e94 d63c 586d b13c f539 833c 3577 263c
000001a0: 227c 693d f0c0 113c 9c4e d43c 86ab 943c
000001b0: 7521 cbbb 10e3 e33c 840a a9bb 668f ebbb
000001c0: 182a ecbb 7d26 f4bb 22c8 a7b9 07ab 4e3c
000001d0: 9eda 5ebd 9d4b 09bb a7eb 37bb cb4a 9eba
000001e0: 6ac4 e83b e73e 303c 56a0 283d 8a0f fcbc
000001f0: b8b0 96bc bbe6 36bc 4769 843c 0f67 203d
00000200: 5a44 4fbc fb6d 1abc f104 053c cf8a f8ba
00000210: 9938 9f3c 8752 afbc 0b11 573c 5992 d53c
00000220: fbe3 04bd 8386 c7bb af93 62bd 777f d5bb
00000230: a6ad 5ebc 1b6a b7bb b67f 653d a7c7 43bc
00000240: 5e0d d83c 8267 04bd d97f a1bc bf00 8d3c
00000250: 5a75 38bc 0ea4 c63c a592 d93c bfbd 16bc
00000260: 318a 803c 9cbe fe3b 035d dabb ccac 71bb
00000270: cdbc 263c 57cd 8fbb 03b3 acbc 82db f83a
00000280: ba9f 783d 7bae 443c 01b8 81bb 4718 e0bc
00000290: 82a1 103d fafe 98bc 9dcb 933b 7958 81bb
000002a0: 8f8f c4bb bf0f aabc de6a 223c f8cb 83bc
000002b0: a261 8aba 635e fd3b 7e08 12bc 20f1 ef3c
000002c0: 607e 9a3c 1123 133c 4d47 4f3d 9ad4 593c
000002d0: ad1d 773d 1f8e a3bc 9c05 403e 2365 22be
000002e0: c9af 373d 6f06 b03c 6a13 033e 29e6 fe3d
000002f0: fc6b dc3d a454 18bc 89e2 d8bd ea2b 2dbe
00000300: 5d65 2d3d 23d1 f23d 1f2c 21be fd3d 3dbb
00000310: fc2f 08be 50b6 163e 41fd d13d 8bdd 893e
00000320: e2a5 163d 768a af3c cee0 58bc 61d3 cdbb
00000330: 4260 27bb f66d 0fbb 5bda 1b3d 82fe 083c
00000340: b247 4e3c 4cd5 203d cd3c f83c 1b38 913c
00000350: 3f2b 81bc de43 8d3c 5333 e33c f94c 45bb
00000360: fc1a 9bbc 64d4 9fbc 61b6 b5bb 8ba0 423c
00000370: 388e 95bc 4464 8d3c eef0 ecbb 1570 aabc
00000380: 72a4 ea3b d2ab 43bd 800c 503c 2523 a4bb
00000390: e63e 8d3b 45a9 4ebc ac36 fe3c 0826 80bc
000003a0: e139 45bb 297d b5bc c3f8 d63c c596 63bb
000003b0: 542e 86bd 4ab6 eabb e43e c2bb f86a 943c
000003c0: 1a0a 4c3c 55e0 623c b039 ab3b ea99 82bb
000003d0: 3551 27bb 0e75 af3c 3713 c53b 5ede 553c
000003e0: 7490 39b9 2b6d 073d ee14 61bb fa52 673d
000003f0: af3a 663c ea7d ee3c e47c bc3c 7a19 a4bb

attn_func.0.bias f4 [3]
0.0064675915 -0.0041682785 1.6288861e-05
00000000: 17ee d33b 0e96 88bb 10a4 8837
