exp/test_larger_net/checkpoint.pth.tar (torch, 100567 bytes, 6 tensors)

x2h.weight f4 [150, 9]
00000000: 0397 d4be 7616 51be 4a43 36be 9b47 e0be
00000010: ac54 dfbc 89c7 29be b187 88be bf39 e0be
00000020: 1279 46be d655 c33d b4a2 58be ef28 8cbd
00000030: f1c8 77bd aec5 f53e 9a89 853d f300 183e
00000040: 963e 42be 2cc0 a1be d672 4c3e 5228 463d
00000050: 4ecc 833e a414 c43d 72c0 38be f9ad 713e
00000060: 0bd9 a73e ba21 44bd 3575 1cbf e78f c9be
00000070: fc68 b03c f129 2cbe 8a6b 5ebe 74bb 12bd
00000080: 2c12 083f d7d2 a0bc c598 483d 598f 57be
00000090: dbcd 573d 856f 753b dfff 243d 0c92 04be
000000a0: 1087 f7bc f746 9a3d d6f6 2fbd d15d 00bc
000000b0: d0f9 293f 478d 90be b682 e03e 6f89 2fbe
000000c0: 1b3b 81be 6215 1e3e bd3c 653c 9f9a f3bd
000000d0: fd5b 663e cfb4 e83d 37ff a73e 9e46 0e3f
000000e0: 23fd 423d c7f0 913e 275a 4fbd cda8 33be
000000f0: e329 e53e 165a 72be 9718 68bf 1d6e 50be
00000100: 6a70 e3bb 8f99 8ebe c327 26be 941e 8cbe
00000110: 25c8 6abd 5f9f 06bb 3bf0 f43e de6d a93b
00000120: e330 44be 4f88 4ebd f9d2 8abe 35ab 67be
00000130: 567c 00be f517 1cbe c81b e83d 0ce1 88be
00000140: 1428 0dbe 4792 cf3c c142 36be d57b 5b3e
00000150: 40e1 c7be 4a93 0bbe 9ce4 263d d75b 32bd
00000160: 4a0e 8d3d ede4 0bbe 0617 91be 2e50 503e
00000170: bb15 92be 783b 03be ed3d 8c3d 9f23 103f
00000180: e14e 423e dc05 a83e ded8 6c3e c598 7ebe
00000190: a88f bf3e 22d1 62be b341 81be 136c 993e
000001a0: 4cf0 bd3e 2d01 333e e5a1 e6bc 3b93 28bd
000001b0: 1976 12bf 6fcc 2cbe 59fd cdbe b9f0 9dbe
000001c0: f04f 6e3e 9524 1cbe c301 b83e 6929 613e
000001d0: 15ac 573d e083 a93d 3c68 093e 2357 f0bd
000001e0: ea97 393f 6c13 82bd 2b4c 70bb f3b6 013f
000001f0: ccfb 09bf 97aa 003f b41c e03c a95b b33d
00000200: 40d2 4f3e d88d f7be 8858 b73d c53f ac3e
00000210: a6e3 a8bd ac82 f5be b505 383e 412c 60be
00000220: a581 e0be 4967 02bf eade 273e dd1f 293e
00000230: 839f 243f 479e 4b3e 99d6 f43e 9e07 fabe
00000240: 37f8 bdbe ac02 89be 7519 e23e 1ef4 583e
00000250: 2b3c 043e dce4 eebd 95b5 2f3e cc9f d7be
00000260: 0ed9 2c3e 3dda fc3c 8727 803d 2d6c c43e
00000270: 3d27 fe3e b162 003f 02dd 44be e767 3c3f
00000280: 2cb2 e23d f722 6dbd 1e18 6abe aa1d eabd
00000290: d9ea 2dbe 5c2f 88be 5e36 773e 92aa 943e
000002a0: 0f3e c63d a6d1 db3e a238 ba3e 1600 fdbe
000002b0: 30e3 e0bd dba7 85be a0c6 b9ba e9d4 afbc
000002c0: a941 7a3e 07d1 ac3e f2c6 0c3e 5c43 ed3e
000002d0: 3254 86be 2f83 093d 9672 36bd e6ab c7bd
000002e0: 7b73 f13e 2736 a9bd 6198 9f3d 2f0f bb3e
000002f0: 5b4d cc3c a689 9f3e 6a73 bebd 0db3 8c3e
00000300: a971 1ebe e9d0 663e 1e6b 013f 83db 59bd
00000310: 3982 1b3e cbb8 00bf e438 4bbf 091d 1ebe
00000320: 7bda 16be 444d 883e d8f3 75be 20dd 173e
00000330: f266 d7be 6331 41bd 097d 533e 8c41 f03b
00000340: 1883 733e 39af 993e ce16 11be 32e7 bd3e
00000350: 275c 803d 00ac 073f cd8c fc3e fd36 b93e
00000360: bd07 87be c6e9 ad3e 5b6f b03e 5221 13be
00000370: b49e 6a3d d90e 20be 7b3d d33e aa57 fa3e
00000380: efb9 ec3e 15cc f0bd ad11 97bd a78b c8be
00000390: 27ed af3e f11e b53e 4dab b63d bca0 043e
000003a0: 09fc b1bc 0436 9f3d 96ac 823e 89d9 c0be
000003b0: da24 f83e 77c3 24bf fe85 81be c18b b43d
000003c0: 3c48 483d 4a8d 813e d7b9 d13e 8916 1bbe
000003d0: d595 4fbe e45c 61bd 0804 80bd c6aa 19bb
000003e0: 83f9 dc3d 33f1 21be 4580 1fbe c21e 943e
000003f0: c48d ebbc a063 a4be 7f66 cabc 718c 3c3e
-0.41521463 -0.20418724 -0.17799106 -0.4380463 -0.027262054 -0.16580023 -0.26666024 -0.43794057
-0.19382122 0.09537856 -0.21155816 -0.06843745 -0.060494367 0.4800238 0.06520386 0.14844112
-0.18969187 -0.31591928 0.19965681 0.048378296 0.2574181 0.095742494 -0.18042162 0.23601522
0.32782778 -0.047883727 -0.61116344 -0.393676 0.021534435 -0.16812874 -0.2172071 -0.0358233
0.5315273 -0.019631786 0.048973817 -0.21050777 0.052686553 0.0037450504 0.04028308 -0.12946337
-0.03021577 0.07533067 -0.04296001 -0.007834868 0.6639681 -0.28232786 0.43849725 -0.1714227
-0.25240406 0.15437844 0.013991532 -0.11894726 0.22496028 0.113626115 0.328119 0.55576503
0.04760469 0.2850401 -0.050623085 -0.17544861 0.4475852 -0.23667178 -0.9066252 -0.20354505
-0.006940891 -0.2785153 -0.16226105 -0.2736708 -0.05731978 -0.002054177 0.4783953 0.005170568
-0.19159274 -0.050422963 -0.27114084 -0.22623904 -0.1254743 -0.15243514 0.11333424 -0.26734197
-0.1378482 0.025338305 -0.17798902 0.21433957 -0.3903904 -0.13630405 0.040745363 -0.043544617
0.06887491 -0.13661547 -0.28337878 0.20343086 -0.28532204 -0.12815654 0.06847749 0.56304353
0.18975402 0.3281697 0.23129603 -0.24862964 0.3741429 -0.2215009 -0.25245437 0.29965267
0.37097394 0.17480917 -0.02815337 -0.041156035 -0.5721145 -0.1687486 -0.4023235 -0.3084772
0.23272681 -0.1524833 0.35938844 0.21988453 0.052654345 0.08277106 0.13418669 -0.1173537
0.7249743 -0.06351361 -0.0036666493 0.50669783 -0.53899837 0.502603 0.027357437 0.08757717
0.20295048 -0.48350406 0.08952433 0.33642402 -0.082465455 -0.47951257 0.17970927 -0.21891882
-0.4384891 -0.5093885 0.16393629 0.16516061 0.64305896 0.19884597 0.47819975 -0.48833936
-0.37103435 -0.2675985 0.44160047 0.21186873 0.12913577 -0.11664745 0.17159112 -0.42114103
0.16879675 0.030865783 0.06257539 0.38363782 0.4963931 0.5015059 -0.19224933 0.7359604
0.1106914 -0.057894673 -0.22860762 -0.11431439 -0.16984119 -0.26598632 0.24141833 0.29036385
0.096798055 0.42933387 0.36371332 -0.49414128 -0.109808326 -0.26104626 -0.0014173575 -0.021463828
0.2443911 0.33753225 0.13747767 0.46340454 -0.2623611 0.033572372 -0.04454287 -0.09749584
0.47158417 -0.08262282 0.07792736 0.36535022 0.02493923 0.31159705 -0.09299357 0.27480355
-0.15473045 0.2254063 0.5055407 -0.05318786 0.15186395 -0.5028197 -0.79383683 -0.15440764
-0.14731781 0.2662145 -0.240188 0.14830446 -0.4207073 -0.04716624 0.20653166 0.0073320325
0.23780477 0.30016497 -0.14168856 0.3709045 0.06267577 0.52996826 0.49326172 0.36174765
-0.2637309 0.33967417 0.34459957 -0.1436818 0.057280257 -0.15630664 0.41257843 0.48895007
0.46235606 -0.117576756 -0.07376418 -0.39169046 0.3436062 0.3537517 0.08919392 0.1295194
-0.021726625 0.077739745 0.25522298 -0.37665966 0.48465616 -0.64360756 -0.2529754 0.088157184
0.048897013 0.25303108 0.40962097 -0.15145315 -0.20272 -0.055020228 -0.06250769 -0.0023447736
0.10789778 -0.15814666 -0.15576275 0.28929716 -0.028754123 -0.32107258 -0.024707077 0.18412949

h2h.weight f4 [150, 150]
00000000: ad0f 5f3d 2da6 453d 4722 643d d8b2 e4bc
00000010: 70e8 a3bc 2e94 013c 9d63 553b 4638 0cbd
00000020: 9ce1 c9bb dd3c 9ebb f9e7 5ebd a3f3 12bc
00000030: d621 b3ba cc39 b9bc 7ce4 89bc 2bfe 1a3c
00000040: b77b b8bc c12e 26ba 145d 91bc 8f8a 6f3c
00000050: 815c a43c d2ed 97bb 3b98 803d ceb4 efba
00000060: 62d1 7c3c f810 363d 6421 e93c 4e07 98bb
00000070: 3b79 e93b 1541 84bd 0288 8d3c a9cd bf3c
00000080: f29e e43c ef86 5abb 1cc3 b43c c2c7 283c
00000090: fb98 07bc cec6 223c e78a 893c c97a 883c
000000a0: cf4a 7dbb bf8a 0d3d 10a8 6f3c 81a4 a1bc
000000b0: 9c98 b8bc e6f4 85bc e404 fab9 c356 c83a
000000c0: 7c37 4dbc d6fb 45bc 7084 fbbc c6d0 abbc
000000d0: 9cef 55bd fd7d 873b de17 16bd 3573 8d3c
000000e0: 3dc3 34bc efa3 95bc 324e 8abc beb4 2dbd
000000f0: c32c cf3b 17eb 22bc 2caf e6bc d115 ffbb
00000100: 2986 a7b9 0b93 563c 98e5 f43c 7088 fbbc
00000110: 5c20 7c3c 86ee dc3c 1cd5 c43d 3a33 98ba
00000120: 8b2a 27bd c8a4 973c 07b5 3cbd 1352 a1bc
00000130: 4c99 aabd 2389 3e3c f590 b7b9 d588 a6bc
00000140: d089 80bc 7ca6 3cbd c3d1 fdb8 73e5 b63c
00000150: 106d a5bc 8e62 4d3d d3a8 3fbd 21cb fabc
00000160: a0fb 893c 6dc2 90b9 aa74 a4bc 4e75 293c
00000170: cd83 dd3c a335 6d3b 6ecf babc 6c8b 233c
00000180: 4c2c 95bc 9968 82bd 282a cb3b df6c 89bc
00000190: c378 533c 326c e43c 90bc eebc bcf3 593c
000001a0: 2a55 3d3d 593e 913b baa9 dabb a2b6 6e3c
000001b0: e30c dfbc 5e93 9e3c dc0c 87bb c25f 093c
000001c0: aac0 48ba f2e1 ac3c f59f b9bb e69e 33bc
000001d0: 092a 3ebd 6a27 d5b9 0531 06bd 2035 09b9
000001e0: 4de5 f43c e2e4 fe3d b3e5 c23d 6f9a 71be
000001f0: 6114 30be 23bf fdbb 5d2c e43c 1a35 fcbd
00000200: 2770 febd 5eb9 9f3d 1a65 07be fb68 13bd
00000210: df5a bfbd f141 d23d df5d 4f3d 5107 82bd
00000220: a5ab d73d 20e3 b33d a7fa c9bc 19ff e33b
00000230: d806 d33d b0e1 31bd 11a3 bcbd 00a2 9fbd
00000240: a8f6 d0bd c069 77bd c369 8cbd b9e4 4dbe
00000250: 7249 9e3e 3119 fcbd 8738 d6bc 14a3 213d
00000260: 79c2 c13b edf2 0b3d ec9b 33bb fe51 ebbc
00000270: b335 933c bf36 123b 6510 633d 5558 8bbd
00000280: b368 0cbd a49e 04bd 5816 7abd 42cf c0bc
00000290: c72e 743c 3e60 0bbc dd26 d8bb 010d 5cbc
000002a0: 8d9a 23bb 313a 3bbd be4f 243d 99c3 63bc
000002b0: 944d 1abd 4464 02bd 444f bfbc 10e2 85bc
000002c0: 5c45 6e3c 31cd 5d3b a3a9 41bc d9bd 32bd
000002d0: 90c6 1f3a e0d8 61bc e1d5 2fbd ff9e 183d
000002e0: 9de2 3aba 5328 9dbc 415b 2f3c 579c 0fbd
000002f0: a91a 593c 7510 663b 6093 13bd 7cab 13bd
00000300: 9ac6 5abd e762 11bb 6ad6 543c 19c5 b8bc
00000310: 3987 2b3d 2945 6a3c 52f5 e5ba 6ed3 a03c
00000320: 913e c3bb 5c5c c63c 79da 38bc ea70 a83c
00000330: 6837 7e3b 1de6 563d ebef 39b9 add6 c03c
00000340: 4fc4 26bd 5905 8a3d 1f83 0cbd 18a0 e43c
00000350: 273e a0bd 4c45 653d 4048 523a 7abc 0b3d
00000360: 85f0 c0bb b4f5 503d 0421 3abc d501 23bb
00000370: 03e2 56bc 99fc 9c3c 06fc 63bd 051e 40bc
00000380: 926b 803d ca41 7e3c 01ef 12bd a0e7 20bd
00000390: e46c c73b b3a6 ba3c 1e93 163d 3c2d e93b
000003a0: 99d6 44bc 89a2 e93c 6fb6 793c aba4 bdba
000003b0: f7d6 c33c 1727 a9bc 337e 58bd a671 0d3d
000003c0: 5c52 283d e8bd 8abd a471 acbb d35e 9c3c
000003d0: c05a bfbd af68 963c 0584 fcbc 2b72 8abc
000003e0: 4d8f 5ebd 9bf3 1abd 9b26 a0bc 2963 d9bc
000003f0: a4a4 433d 8507 86b9 32a0 9cbb d9c0 a13b
0.05445831 0.04825418 0.055696752 -0.02791731 -0.020008296 0.007908864 0.0032560595 -0.034233354
-0.006160928 -0.004829033 -0.054420445 -0.00896922 -0.00136667 -0.022610568 -0.016832583 0.009460012
-0.02251993 -0.00063393643 -0.017744578 0.014620437 0.02006364 -0.0046365047 0.06279036 -0.0018288137
0.01543078 0.044449776 0.028458305 -0.0046395427 0.0071250475 -0.06457726 0.017276768 0.023413496
0.027907822 -0.0033344587 0.022065692 0.010301532 -0.0082762195 0.009935094 0.016789867 0.016660111
-0.0038649326 0.034556147 0.014627472 -0.019731762 -0.022533707 -0.016352128 -0.0004768736 0.0015284646
-0.012525436 -0.012083968 -0.0307028 -0.020973574 -0.052230462 0.004134892 -0.036643855 0.017266849
-0.011032877 -0.018266646 -0.01688299 -0.042408697 0.0063224747 -0.009943745 -0.0281597 -0.007784583
-0.0003195268 0.013096581 0.029894635 -0.030704707 0.015388574 0.026969206 0.0961096 -0.0011611946
-0.040812057 0.018511191 -0.04607108 -0.019692456 -0.0833002 0.011629376 -0.0003501248 -0.020328918
-0.015690714 -0.04605721 -0.00012103051 0.022326207 -0.020193607 0.050142817 -0.046791863 -0.030614438
0.016843617 -0.0002761068 -0.020075161 0.010342909 0.027040387 0.00361953 -0.022803988 0.009981971
-0.018209599 -0.06367607 0.006200094 -0.016775547 0.01290721 0.027883623 -0.029142648 0.01330274
0.046223797 0.0044324812 -0.006673065 0.01456991 -0.027227825 0.01935738 -0.004121406 0.008384647
-0.0007658104 0.021103833 -0.0056648203 -0.010963177 -0.046426807 -0.00040655892 -0.032761592 -0.00013085129
0.029894495 0.12446 0.09516468 -0.23594068 -0.17195274 -0.0077437325 0.027853185 -0.12314816
-0.12423735 0.07799028 -0.13222161 -0.03598879 -0.09343504 0.102664836 0.05062663 -0.06349052
0.105307855 0.08783555 -0.024655653 0.0069579002 0.1030404 -0.043428123 -0.0921079 -0.07794571
-0.10203296 -0.060403585 -0.0685611 -0.20106782 0.3091541 -0.123094924 -0.026150001 0.039462164
0.0059130755 0.03416722 -0.002740617 -0.02872562 0.017969942 0.0022310463 0.055435557 -0.068039574
-0.034279536 -0.032377854 -0.061056465 -0.023536328 0.014903731 -0.008506833 -0.0065964297 -0.013430835
-0.0024963946 -0.045709793 0.04011511 -0.013901615 -0.03767164 -0.031833902 -0.023353226 -0.016343147
0.014542904 0.0033844227 -0.01182023 -0.043638084 0.0006094957 -0.013784617 -0.04292858 0.037261005
-0.0007129105 -0.019184267 0.010702909 -0.035061207 0.013250985 0.0035105024 -0.03602922 -0.036052212
-0.053412057 -0.0022184195 0.012990573 -0.022554921 0.041877005 0.014298716 -0.0017544425 0.019632068
-0.005958386 0.024213962 -0.011282557 0.020561654 0.003879035 0.052465547 -0.00017732351 0.023539865
-0.04071456 0.06739301 -0.034304734 0.02790837 -0.078243546 0.05597429 0.00080216303 0.034115292
-0.005888047 0.05101557 -0.011360411 -0.0024872918 -0.013115409 0.019163417 -0.05566027 -0.011725907
0.062705174 0.015518615 -0.035872463 -0.039283395 0.006085979 0.022784567 0.036761396 0.007115988
-0.012014055 0.028519886 0.015241249 -0.001446863 0.023906214 -0.020648522 -0.052854728 0.03453221
0.04109417 -0.06774503 -0.0052625705 0.019088184 -0.09343481 0.018360464 -0.03082467 -0.016900143
-0.05433588 -0.037829977 -0.019549659 -0.026536541 0.047764435 -0.00025564074 -0.004779839 0.0049363193

h2h.bias f4 [150]
00000000: f5fb 573b 4c59 223c 42a3 b63c 2926 073c
00000010: 37a7 00bc 3ae6 033c 251f d23c 6116 423c
00000020: 0e8c 58ba 3630 ad3b 2e5a fb3b 7045 d0ba
00000030: b017 0439 38aa e2bb c4ce e938 e8eb 0e3c
00000040: c530 f03c e44e 093c 5bfb 103d 2517 8b3c
00000050: ddbf 403b dd4a a33c bb24 dd3b 5a2a 59bb
00000060: 8191 5f3c f975 18bc 2ab2 15bb 76df 183b
00000070: 909a ac3c 3e52 8c3c 88a4 db3c d58d 5d3c
00000080: d92a e43c 8f71 d93c c4f4 033b a85d 0c3c
00000090: 7d41 0a3d c26f 8d3b 2899 653b 6ef7 0f3d
000000a0: 380e 063d f369 a23b 03cc 9fbb cccd 0f3d
000000b0: 30eb c3ba 5711 ad3c 84d9 4bb9 16f8 34bc
000000c0: a449 8c3c bd51 bf3c 8108 8c3c 848c fc38
000000d0: 5fdc 443a ad39 203c 70ff e23c 3f19 653b
000000e0: 6b38 133d 1c34 cd3c e6a9 173b 57f9 9dba
000000f0: 124e 2e3c 42a2 033b 7ed6 7bbb 3fae d2bb
00000100: f21b 013c 0ad4 bbbc 1e7a 2f3c fed1 1f3c
00000110: 3070 a03c 18f4 13ba d7ca 963c 376a a3b9
00000120: 44dd 8d3c 1ae6 823c 547a 28bc aa54 323a
00000130: a5c0 0dbb 3560 5d3c 9a36 e53a b805 353b
00000140: 738b 9d3c d65e ef39 9391 6b3b 6a66 f63b
00000150: e7f9 9b3c 9c44 043d 4a08 34bb 29a6 fa3c
00000160: 9579 663c d39b e23c 1a7a d93a 597b 2cba
00000170: 4c41 c13c db67 b13b 2138 8b3c 8330 e13b
00000180: 5386 0f3d 5e4e 9b3c 5c79 9b3c 8b52 953b
00000190: 65e8 083d 2aea 8c3b 195c 923c 55c6 fc39
000001a0: c084 823a 2238 853b 522a 283d 6d73 213c
000001b0: d126 51bc 27e8 943c f1ad d53c 7490 9d3c
000001c0: 6bdc b2bb 5734 883b 1c3f 7aba c060 8c3c
000001d0: 9541 16bb c9b7 e03c 6a6d 653c 0d01 3a3c
000001e0: 60b1 4ebc fdfa 083b 01d2 16bc cc30 3abc
000001f0: ef14 69bb a341 0cbc 6a56 0cba 93c4 92bc
00000200: ff85 70bc b377 e2bb 1991 d03b 7a96 76bb
00000210: 7c1d 41bc f2fa fc3b 5bfb 5cbb 2dc0 19bb
00000220: 62db edbb 542f b5ba dad3 61bb 9e1a a5bc
00000230: 4214 26bc f7bb 1cbc dd31 c93b 2593 f839
00000240: 5873 8fbb 44da ccbc f645 803b 709f 17bc
00000250: 575a deba 57b1 f4bb
0.0032956575 0.009908985 0.022294644 0.008248844 -0.007852367 0.008050496 0.025649616 0.011846156
-0.0008260616 0.005285288 0.0076706624 -0.0015889835 0.00012597325 -0.0069172643 0.00011148819 0.008723237
0.02932013 0.008380625 0.03539596 0.01697881 0.0029411234 0.019933159 0.0067487634 -0.0033136816
0.013645531 -0.009305471 -0.002284179 0.0023326552 0.021069795 0.01712906 0.026811853 0.013522585
0.027852463 0.026543407 0.0020134905 0.008567251 0.03375386 0.004316301 0.0035033915 0.035148077
0.032728404 0.004956478 -0.004876615 0.035108373 -0.0014947411 0.021126432 -0.0001944062 -0.011045476
0.017124958 0.023354406 0.017093899 0.000120424695 0.00075096445 0.009779376 0.027709693 0.0034957675
0.035942476 0.025049262 0.002314204 -0.0012052458 0.010638731 0.0020085727 -0.0038427408 -0.006429463
0.007880198 -0.022928257 0.010710267 0.009754656 0.019584745 -0.0005643978 0.018407268 -0.0003116892
0.017317422 0.015978862 -0.010283072 0.0006802777 -0.0021629718 0.013511707 0.0017487586 0.0027621817
0.019231534 0.0004565629 0.0035944923 0.007519533 0.019040061 0.032291993 -0.002747076 0.03059681
0.014067073 0.027662193 0.0016592175 -0.00065796595 0.023590706 0.005413992 0.016994538 0.006872238
0.03504021 0.018958267 0.018978767 0.004556959 0.033424754 0.0043003755 0.017866181 0.00048212954
0.0009957775 0.0040655294 0.041055985 0.00985418 -0.012765602 0.018177105 0.026083918 0.01923392
-0.005458405 0.00415663 -0.0009546147 0.017135978 -0.0022927274 0.027431386 0.014003137 0.01135279
-0.012615532 0.0020901554 -0.009205342 -0.011364173 -0.0035565456 -0.008560571 -0.0005353453 -0.017916
-0.014680385 -0.006911242 0.0063649532 -0.0037626312 -0.011786815 0.0077203447 -0.0033719155 -0.0023460493
-0.0072588185 -0.0013823309 -0.0034458549 -0.020154294 -0.010136666 -0.009566299 0.0061399774 0.00047411877
-0.0043777637 -0.02500642 0.00391459 -0.009254321 -0.0016964179 -0.0074674296

h2o.weight f4 [1, 150]
00000000: d696 f9bc ab93 163d 03ec 243d 737f bd3c
00000010: 038d 22bc fb4a 223d 6797 653d 3b77 103d
00000020: 2602 41bc 8996 00bc 3441 d5bb a9ea 8dbb
00000030: 1cb8 23bb 4f29 76bb 17fb 08bc 1a45 083d
00000040: 2679 793d 7759 1b3d dee6 963d d720 2d3d
00000050: 015c 47bc 5ba9 4c3d 5418 30bc e99a 3ebc
00000060: b9eb 263d cfcb ddbc 3b42 bfba c680 2dbc
00000070: 5645 463d 8d00 373d 84e2 2d3d 4758 7abb
00000080: fc8f 353d aac0 733d 03d1 9fbb 4d9d e83c
00000090: 52a8 653d 971e 6bbc f239 fdbc 978c ab3d
000000a0: d86f 683d e80c f93c f292 74bb bdb1 713d
000000b0: 219d aebb 01fa 273d d943 03bd 6671 30bc
000000c0: 6013 413d e7db 1e3d b956 1a3d f919 99ba
000000d0: 9206 c5bb 666d 383d a069 553d 1b6a c3bb
000000e0: eb38 283d 8113 643d 7e84 41bb 0482 99ba
000000f0: 08e1 3cbc b3dd a4bb 70cc 09bd fe44 93bc
00000100: a809 dbbb e87a b0bc 7db1 1f3d 0abe a03c
00000110: 5510 283d e744 e8b9 5395 973d 46b5 9abc
00000120: 83d7 6a3d 1165 6ebb 4716 45bb 2b22 64ba
00000130: c2f1 10bd 3c28 133d 7bdc 00bd 45f3 0bbc
00000140: 1ed1 373d a828 24bd 8048 04bd c81d 42bc
00000150: 8467 093d 76e3 523d 893c 4bbb 5434 7f3d
00000160: a393 1c3d 4715 5a3d 7940 083d 6dae 4cba
00000170: bfa8 3d3d 98ac 1cbb 88bc b3bc 6716 dcbc
00000180: c7a0 8d3d 6fe3 413d aee6 313d 9609 49bc
00000190: 26c4 7d3d 2b67 bbbb 9cc5 273d 6e97 54bc
000001a0: 59d1 c4ba df00 adbb 70dd 9a3d 8f08 db3c
000001b0: 8a87 f3bb c6d5 343d 4e83 3e3d 3f82 7c3d
000001c0: e02f 01bd 29e3 7bbc 3843 37bc e6c1 9dbb
000001d0: c239 bebc 90f4 6a3d 76fe ad3c db58 033d
000001e0: 2f62 96bd 01fa 2fbd 3502 933d 7fb4 543d
000001f0: 134c 4c3c 3bda 40bd 07b1 783b 3d07 103e
00000200: 078f 80bd a63f 6bbc 1244 0b3c 4665 683d
00000210: b076 c73c 9982 51bb 074e 573d e4c1 3a3d
00000220: a9db abbc 0353 ca3c 490a c3bc 542d 04bd
00000230: 4744 753c c85a ed3c 5f2c 91bd 547d d2bc
00000240: 3586 3ebd 93a0 1abd b663 42bb 4351 fb3b
00000250: 3cbe 95bd 4db7 913d
-0.030467432 0.03676192 0.04026414 0.023132062 -0.009921315 0.03962229 0.05605259 0.035269957
-0.011780297 -0.00784839 -0.006508017 -0.004330952 -0.0024981564 -0.0037561243 -0.008360646 0.033269025
0.06090655 0.037927117 0.07368253 0.042267647 -0.012167932 0.049966197 -0.010747988 -0.011633613
0.040752146 -0.027074723 -0.0014591882 -0.010589784 0.048405968 0.04467826 0.04245235 -0.003819959
0.044326767 0.05950991 -0.004877211 0.02839532 0.056068726 -0.014350555 -0.03091142 0.08376425
0.056747288 0.030401662 -0.0037319032 0.059007395 -0.00532879 0.041009907 -0.032047126 -0.010769224
0.047137618 0.038783934 0.03768036 -0.0011680714 -0.006012746 0.045026205 0.052102685 -0.0059635765
0.041069906 0.055682663 -0.0029528434 -0.0011711721 -0.011528261 -0.0050313114 -0.033642232 -0.017977234
-0.0066845007 -0.021542981 0.038987625 0.019621868 0.0410312 -0.00044301825 0.07401528 -0.018885266
0.057334434 -0.0036376158 -0.0030073093 -0.0008702601 -0.03538681 0.035927042 -0.031460267 -0.008541887
0.044877164 -0.040077835 -0.032295704 -0.011847921 0.033545986 0.051486455 -0.0031011424 0.062305763
0.038226735 0.053242948 0.03326461 -0.0007807974 0.046303507 -0.0023906585 -0.021940485 -0.026866151
0.069154315 0.04733604 0.043432884 -0.012270352 0.06195464 -0.0057190857 0.04095994 -0.012975557
-0.0015016004 -0.005279645 0.07561767 0.02673748 -0.007431929 0.044149183 0.04651194 0.06164765
-0.031539798 -0.015373983 -0.01118546 -0.0048143743 -0.0232209 0.05736214 0.0212395 0.03206716
-0.07342946 -0.04296303 0.07178155 0.051929947 0.012469309 -0.04708312 0.0037947313 0.14065261
-0.0627728 -0.014358437 0.008500116 0.056737207 0.024348587 -0.0031968711 0.052564647 0.045595065
-0.020978766 0.024697786 -0.023808615 -0.03226979 0.014969892 0.028973952 -0.07088541 -0.025694527
-0.04651471 -0.03775079 -0.0029661483 0.0076695993 -0.07311675 0.0711504

attn_func.0.weight f4 [3, 150]
00000000: 3f2b 6cbc aa30 073b e92d 4fbc 423d e53b
00000010: 08c9 dabb 7462 dfbb edcb 2ebc 3556 8dbb
00000020: 82d9 1a3c 9a2e feb9 00cb 62bb b367 04bc
00000030: c69b 36bc 5b31 90bc a84f fc3b 6aef 6c3c
00000040: 3e2d 9c3b 8863 78bc 7ce0 103c 7e77 f739
00000050: 2dd6 4dbc 23a0 dcbb dd43 773c 3158 08bb
00000060: 4a0c ffb9 7151 51bc c378 ddbb 2d0e 843c
00000070: b544 f2bb 8d83 abbc 70dc 773c 0852 f0bb
00000080: 06cf cdba 0196 04bb 8d37 973b 7991 003a
00000090: b42e 92bb 4b49 adbb 2e35 353c 5650 82bc
000000a0: 01b8 00bb ccf6 f4bc e804 d7bb bb65 ccbb
000000b0: 3cb4 57bc 0d04 4fbb 324f 4bbc 28ff bfbb
000000c0: fe5e 99bc 944b 0abc 79f8 3e3c 5bef a9bb
000000d0: 849e bdbc 61ce 81b9 0c38 85bb 48a1 3ebc
000000e0: b9ef 88bc 2a26 a1bb 262f 80bc d2eb 913b
000000f0: 6941 83bb 42f8 46bc cdfe 6bbc caf3 90bb
00000100: ed10 07bc 4f8a 2d39 1d02 0cbc 5b65 c3bc
00000110: 31e3 18bc 3fe1 823a 37ee a2ba a105 8ab9
00000120: 307e 4bbb c086 d7bb dea8 00bc 48de f5ba
00000130: 8d09 9dbc 11ff 28bc 4976 f53b a648 e6bb
00000140: 7001 f6ba 3905 4aba e5b7 f43c 484b cdbb
00000150: de5d 1bbc 8dd1 68ba 5601 bf3b b3ef 90bc
00000160: 2b14 d4ba c1a8 c43b f9f2 d33b de52 c83b
00000170: 881f 3f3b fd6c 9ebc 4f0e 94bc c876 e13a
00000180: 5ae9 3aba 6e54 c9bc 72c6 793c a4e2 67bc
00000190: 1013 b83b 6ee2 813b 0c50 e33c 29f3 bfbb
000001a0: 3aa2 633b 1c2c 2f3c 9393 33bc d58a d0bc
000001b0: 774b 8dbc 9e88 27bb 6b41 47bc 3bae e9b9
000001c0: d4ba 77b9 4901 173b 5ec7 413c 0da9 55bb
000001d0: c7bf 50bb e1bf 6dbc b843 573c 1c44 ebba
000001e0: d170 863d b74f 79bc 47df 903c 26dc 5fbd
000001f0: d0d1 a93b de7a 8d3c e887 3c3d 9724 a63c
00000200: 7b67 9cbc f985 d2bd 8314 58bd cc4c 123d
00000210: 1252 f33d 21d6 88bd 3416 6c3c 156c a4bd
00000220: d972 bbbc 1a63 f9bc 43f1 ca3d 9ad3 833d
00000230: 5945 bf3d 0172 833d 883d 11bd 7294 fbbc
00000240: 9efc 813c 7404 ac3c 263e 39bd b2c5 79bd
00000250: 0e30 263c 72e0 133c ede4 b5bc 553f d33b
00000260: 7772 afba f6cc da3c b0c7 56ba 2ebe 2ebc
00000270: cc90 943c 52a7 9bbb 167c aa3b 3763 d7bc
00000280: 632c 7a3c 3c8f a73c 3757 c83c 5427 efbc
00000290: 6de2 0dbd b68a e2bc 2f7a 12bc 35ad dc3c
000002a0: e810 81bb 9bfe 303c c176 3b3c b8d9 283c
000002b0: 41a0 68ba cdc4 3b3c 9196 ddba 2cdd 19bc
000002c0: 11d7 23bc b6f0 efba 2495 4e3c 6ef1 293c
000002d0: 9fab 23bb 0101 84bc 7ddd 9bbc 37ba 8ebc
000002e0: 33bc 4ebc 5411 12bb 5a3a 82bb b031 91bc
000002f0: bf58 463c e16a adbb 1baf 6abc f243 99bc
00000300: f4a5 86bb 027e 06bb 4f9f a83c ae9f 5abc
00000310: 757e 0fbd 0302 30bc 2469 8fbb 362d fabc
00000320: 9103 1bbd 2ea0 adbc ae6a 963c 3e6b 10bb
00000330: 2ed7 a2bc 4486 ad3c f6f3 86bb 090a cebc
00000340: 8a4d 94ba 6228 f73c 22d5 aebb 1392 5fbb
00000350: cda7 313c e2bc 0bbc 4848 27bc 54cc 47bb
00000360: d8bc eb3c 3d46 ef3c eb71 87bc 01d1 3dbb
00000370: f8c6 e6ba f39a 12bd f91a d0bc 3677 cabc
00000380: f4aa 56ba 525d b0bb 5896 64bb 070f dfba
00000390: 9ef5 a1bb 7120 4ebb fb68 17bb 74b3 26bc
000003a0: 0abc 05bc a8ba 68bb c135 84bc 2cf9 323c
000003b0: 0aa1 09bc 3da2 703c 5dc4 943c ebe4 43ba
000003c0: 5558 593c 095a fdba 9189 553c 2366 a7bc
000003d0: d2e5 983c 7ebb 5e3c 83d4 e43b 6ec7 6dbc
000003e0: e368 5abc ee9a 2bbc 3520 bcba 7c61 aab9
000003f0: a24c 103c 8c11 31ba 2cbd 4abb bfd8 5abc
-0.014414608 0.0020628371 -0.012645223 0.006995828 -0.006676797 -0.0068171564 -0.010668737 -0.004313255
0.009451272 -0.00048481376 -0.003460586 -0.008081364 -0.011145538 -0.01760166 0.0076999255 0.014461378
0.0047661355 -0.015160449 0.008842584 0.0004720054 -0.0125632705 -0.006732957 0.015091863 -0.002080452
-0.00048646546 -0.012775765 -0.0067587807 0.01612004 -0.0073934444 -0.020936752 0.01512824 -0.0073339976
-0.0015701957 -0.002023101 0.0046147765 0.00049044896 -0.004461134 -0.005288278 0.011060042 -0.015907448
-0.0019640925 -0.029902838 -0.006561864 -0.006237713 -0.01316553 -0.0031588108 -0.012409018 -0.0058592744
-0.018722054 -0.008440871 0.01165592 -0.005186004 -0.023146875 -0.00024758562 -0.004065519 -0.011635132
-0.016715871 -0.0049178796 -0.015647482 0.004453161 -0.0040056 -0.01214415 -0.014404011 -0.004423593
-0.0082437815 0.0001655009 -0.008545426 -0.023852041 -0.00933151 0.0009985341 -0.0012430613 -0.00026325605
-0.0031050555 -0.0065773427 -0.007852761 -0.0018758262 -0.019169593 -0.010314719 0.0074909073 -0.0070277033
-0.0018768739 -0.0007706467 0.029872844 -0.0062650777 -0.009482829 -0.0008881323 0.0058290167 -0.017692422
-0.0016180327 0.0060015623 0.0064681736 0.006113394 0.0029163081 -0.019339079 -0.01807323 0.0017201537
-0.0007130109 -0.024576392 0.015245067 -0.014153156 0.005617507 0.00396376 0.02774813 -0.0058578444
0.0034734146 0.010691669 -0.010960477 -0.025456825 -0.017247899 -0.0025563608 -0.012161593 -0.00044571035
-0.00023625355 0.0023041537 0.011827318 -0.0032601983 -0.003185259 -0.0145110795 0.013138704 -0.0017949375
0.06564487 -0.015216759 0.017684592 -0.05465331 0.0051824823 0.017270502 0.046028048 0.02028112
-0.019092312 -0.102794595 -0.052753936 0.03571777 0.11880888 -0.06681467 0.0144095905 -0.080284275
-0.022881912 -0.030442763 0.09909298 0.06436844 0.09339399 0.06418229 -0.03545907 -0.030710433
0.015867528 0.020998217 -0.045225285 -0.060979553 0.010143293 0.00902568 -0.022203887 0.0064467588
-0.0013385554 0.026709061 -0.0008193208 -0.01066546 0.01813545 -0.0047501707 0.0052027805 -0.026292427
0.015269372 0.020454042 0.02445565 -0.029193558 -0.034639765 -0.027654033 -0.008940264 0.02693806
-0.003938783 0.01080289 0.011441887 0.010305814 -0.00088739773 0.011460495 -0.0016905834 -0.00939111
-0.010000006 -0.001830599 0.0126088 0.010372503 -0.002497412 -0.01611376 -0.019026512 -0.017422779
-0.012618112 -0.002228816 -0.003974241 -0.017723888 0.01210612 -0.005292282 -0.014323975 -0.018709157
-0.0041091386 -0.0020521884 0.020583777 -0.013343735 -0.03503271 -0.010742667 -0.0043765474 -0.030539136
-0.037845198 -0.021194544 0.018361416 -0.0022036578 -0.019877996 0.021182187 -0.004118438 -0.02515127
-0.0011314612 0.030170623 -0.005335466 -0.0034114167 0.0108432295 -0.00852892 -0.010210104 -0.003048678
0.028776571 0.029208297 -0.016533813 -0.0028963687 -0.0017606905 -0.035792302 -0.025403487 -0.024715047
-0.0008188926 -0.0053822184 -0.003487965 -0.0017018028 -0.00494261 -0.0031452442 -0.0023103345 -0.010174621
-0.008162508 -0.0035511646 -0.016138913 0.010923665 -0.008400211 0.014687118 0.01816004 -0.0007472771
0.013265689 -0.0019329201 0.013033287 -0.020434445 0.018664274 0.013594506 0.006983341 -0.01451288
-0.013330671 -0.01047395 -0.001435286 -0.00032497558 0.008807333 -0.0006754629 -0.003093551 -0.01335734

attn_func.0.bias f4 [3]
00000000: ab98 3ebd 4275 533b d22d 413d
-0.046532314 0.0032265936 0.04716284
