exp/test_larger_net/checkpoint.pth.tar (torch, 100503 bytes, 6 tensors)

x2h.weight f4 [150, 9]
000000 22 28 7e 3e b3 0f 55 be 34 29 bb bd 8f 46 63 3e
       0.24819997 -0.2080677 -0.09138718 0.22194885
000010 71 39 e3 be 4b f1 8e 3e 5e 9d c6 bd 16 2d 7f 3e
       -0.44379762 0.27918467 -0.09697984 0.24919543
000020 52 63 69 3d 92 6c 6c bd 81 a2 f6 3d 82 a8 4f 3c
       0.056979485 -0.05772073 0.12042714 0.012674453
000030 d2 21 22 3e a4 1d 3c be 0d c7 0c bd d3 d4 2d bd
       0.15833214 -0.18370682 -0.034369517 -0.042439293
000040 da a9 40 3d f3 d4 f6 ba e6 94 c8 3e 05 1d 17 3e
       0.047036983 -0.0018831774 0.391761 0.14757164
000050 6d c4 33 be 86 c5 91 be 80 d2 a1 bd 4d 37 50 be
       -0.17555399 -0.2847101 -0.07901478 -0.20333596
000060 b4 af 1a be e6 38 8c 3c 8c 45 82 3e 31 9e 68 3e
       -0.15106088 0.017116975 0.25443685 0.22716595
000070 d9 f0 eb be ab 4b 91 3e 70 24 db 3d 34 3f e3 3e
       -0.4608219 0.28378043 0.10700309 0.44384158
000080 d7 47 90 3e 51 e9 db be 7d 7c e5 be 9c d4 68 be
       0.2817981 -0.42951444 -0.4482154 -0.22737354
000090 a4 95 d0 3e d1 cf a0 bd ac 79 4f 3e 1e 53 60 be
       0.40739167 -0.07852138 0.20261258 -0.21906707
0000a0 60 bd eb 3e c2 3c 4c be 7d 6c b3 3e 83 4c 68 3c
       0.4604292 -0.19945052 0.35043707 0.014178398
0000b0 ec 4d 7e be 33 dc 48 3e 47 1e 80 be 7b 0c ea 3d
       -0.24834412 0.1961525 -0.250231 0.11428162
0000c0 6c 63 0b be aa b0 53 bd 2f 0a e8 be b7 26 66 be
       -0.13612145 -0.05168215 -0.4532027 -0.22475706
0000d0 4d 9d 55 3e f9 ac ea bd f3 73 e1 3e dd 3d b9 3e
       0.20860787 -0.11458773 0.44033775 0.3618001
0000e0 28 d2 b4 bc 67 1a a1 be 6c 66 90 3e 14 13 00 3e
       -0.022072867 -0.31465456 0.28203142 0.12507278
0000f0 f1 04 9c be f8 92 8e 3e bf 30 8b 3e 57 2a d8 3e
       -0.3047252 0.27846503 0.27185628 0.42219803
000100 d2 4b 87 be a7 ea 9e bd 53 9e 15 bc 8f 70 a2 3d
       -0.26425034 -0.077596 -0.009131986 0.07931625
000110 fe 2b b7 be 1a 46 ab be a6 fd 86 3e 17 63 e2 bd
       -0.3577575 -0.3345192 0.26365393 -0.11054056
000120 ad fd 76 3e 74 86 4d 3d de b8 1e 3e 54 17 ec 3d
       0.24120207 0.050177053 0.15500209 0.11527887
000130 36 1b 43 3e d3 b2 6e 3e 8d 86 df be 10 c0 80 3e
       0.19053349 0.23310404 -0.43657342 0.25146532
000140 88 b4 a9 be 8d 1b b6 be 0c 1c 2d 3d 6e 84 a4 bd
       -0.33145547 -0.35567895 0.042263076 -0.080330715
000150 6b d5 8d 3e 98 c7 8b be 5b 90 d6 be 11 a5 ae 3e
       0.27701887 -0.27300715 -0.4190701 0.3411031
000160 1b 28 8f bd a6 0b 8e 3e e0 1f fc 3d 3f fd b4 be
       -0.069900714 0.27743262 0.12310767 -0.3534946
000170 7e d2 a8 3d 6b db b3 3d a5 9a a1 be 53 09 65 be
       0.08243273 0.08782085 -0.31563297 -0.22366838
000180 ba 36 08 3e 5a 2d 86 3d ca 55 4d be 61 20 12 be
       0.13302127 0.06551619 -0.20052257 -0.14270164
000190 45 03 b7 3e 55 a0 b2 bd 61 54 55 3e c3 c0 12 3e
       0.35744682 -0.08721987 0.20832969 0.14331345
0001a0 29 04 9c be 49 42 cd be e8 d5 c4 3e 28 ad 0c bc
       -0.30471924 -0.40089634 0.38444448 -0.008586206
0001b0 ca 29 97 3e 6f e6 9f 3d 91 9a 11 3e 63 98 a8 3e
       0.2952407 0.078076236 0.14219119 0.32928762
0001c0 c1 67 e2 3e 4d 29 a0 be c4 54 e5 3c 5a 4a ab 3e
       0.44219783 -0.3128151 0.027994521 0.33455163
0001d0 88 f8 ab 3e 15 d8 97 3e 18 ad ae be c0 cd ad be
       0.33588052 0.29657045 -0.34116435 -0.33946037
0001e0 97 f7 91 be dd 35 6f 3d fb 1b f0 3e ee 75 98 be
       -0.2850921 0.058400977 0.46896347 -0.29777473
0001f0 58 b8 87 3e e3 96 85 be fc ed e2 be 8c 31 cd bd
       0.2650783 -0.2609168 -0.44322193 -0.10019216
000200 7e 52 7a 3e 35 ec cf 3e b4 e4 95 be b4 4c 84 3d
       0.24445531 0.406099 -0.2927605 0.064599425
000210 30 36 c0 3e ce bf 92 3e b8 91 82 3e e7 dc a4 3e
       0.37541342 0.2866196 0.255018 0.32199785
000220 ee 4b 98 3e 40 51 01 3e d5 0b a5 be f2 ae ca be
       0.2974543 0.1262865 -0.3223559 -0.39586598
000230 02 31 5d be 9d d7 60 bd 0d f1 93 be f1 18 2e 3e
       -0.21600726 -0.054893125 -0.28894845 0.17001702
000240 56 1b d2 3d e1 9b da bd b9 56 06 3e 01 40 da 3d
       0.1025912 -0.10674263 0.1311902 0.10656739
000250 86 2d 7f 3e b7 e1 8c 3e 4e 79 23 be d8 40 cf 3e
       0.2491971 0.27515957 -0.15964243 0.4047916
000260 4e 39 5f bd 94 ac 84 bc 66 d0 e3 be b7 57 9b be
       -0.05449801 -0.016195573 -0.44494933 -0.3034036
000270 ba 00 8d be 3b 78 4e be 80 4d b1 3e 40 be 1d be
       -0.27539617 -0.20163052 0.3462944 -0.15404606
000280 f6 5c b4 be 75 93 54 3e a5 83 38 3e 90 b8 a9 3e
       -0.35227174 0.20759375 0.18018968 0.33148623
000290 12 cb 79 be 3e 18 f6 3d df bb 2f be be e8 d8 bd
       -0.24393871 0.120163426 -0.17161511 -0.10591267
0002a0 f1 57 c0 be 0e 01 5c be 10 d6 13 be 2d 80 10 3e
       -0.37567094 -0.21484777 -0.14437127 0.14111395
0002b0 15 6d 0b 3d c6 9c 65 3d 26 6e cc 3e 29 09 d1 3e
       0.034039576 0.056057714 0.39927787 0.408273
0002c0 46 e7 8c 3e c6 ae 38 bc 5d f8 a6 be eb 86 9b 3e
       0.27520198 -0.011272138 -0.3261136 0.30376372
0002d0 9c 6b f1 bd 24 1a 1c bd 3d ee cf be 89 b3 be bd
       -0.11788103 -0.038110867 -0.4061145 -0.09311587
0002e0 77 ac 9b be 2f 7c cd 3e f8 a8 d0 be a0 22 bc be
       -0.30405018 0.40133807 -0.40753913 -0.36745167
0002f0 6c 21 83 bc b1 81 82 be fc 78 27 3e 84 cf 39 be
       -0.016007148 -0.25489572 0.16354746 -0.18145567
000300 0d ba 62 be 5b 9f 30 3d cb 8a ad 3e 19 c7 a9 be
       -0.22141285 0.043120723 0.33894953 -0.33159712
000310 b0 28 76 3e b9 8e a0 3e 27 55 ca 3e 49 ef a8 be
       0.24038959 0.3135889 0.3951809 -0.3299506
000320 5d c8 97 3d a8 77 b2 be 10 f7 ac 3e dc 3f 3b be
       0.07411263 -0.34856915 0.33782244 -0.18286079
000330 3b 85 5e 3e 52 ec 1d bc aa 61 16 bd 8a 70 76 bc
       0.21730511 -0.009638863 -0.036714233 -0.01504148
000340 f9 30 93 3d 76 94 65 3e e8 b9 8c 3d 6f 17 1a 3e
       0.07187075 0.22419915 0.06871396 0.15048002
000350 c6 1b d9 be a1 b3 a5 3e e7 9e cd 3e a6 2f c5 3e
       -0.42404002 0.32363608 0.40160295 0.38512915
000360 64 12 a0 3e 1d 2c ae be 93 f1 32 be 3d 42 c5 3e
       0.3126403 -0.3401803 -0.17474966 0.38527098
000370 4f d5 b7 be 56 62 cd 3e f7 d3 bd be f2 03 aa be
       -0.3590493 0.40114087 -0.3707578 -0.33206135
000380 78 ab 4f 3e f4 69 ad be a3 2e dd bd ea 52 95 3e
       0.20280254 -0.33869898 -0.10799911 0.2916482
000390 da 9b aa 3e d0 7d c7 3e 67 e7 c3 bd 56 99 bb be
       0.3332203 0.38963175 -0.09565621 -0.36640424
0003a0 74 2f d0 3e c9 a9 cd bd 74 9b 46 be 59 d6 07 3e
       0.40661204 -0.100421496 -0.19395238 0.13265361
0003b0 d1 c9 a8 be f9 f4 aa 3e 0d 07 a5 3e 91 83 bf be
       -0.32966474 0.33390024 0.32231942 -0.37405065
0003c0 e7 3e c6 be 36 23 29 bd 46 d7 55 3e 56 b0 5f bc
       -0.38719866 -0.041293345 0.20882902 -0.013652882
0003d0 8d c6 74 be 0c 23 61 bb 78 dc e2 be 4d 95 aa be
       -0.23903866 -0.0034353165 -0.4430883 -0.33317032
0003e0 92 ab a0 be e4 14 b8 3e 3c 15 c8 3e 9c f6 23 be
       -0.31380898 0.35953438 0.390787 -0.16012043
0003f0 cb ce a6 bb 45 4c 36 3e da 0b c3 3c ef b8 71 be
       -0.0050905696 0.17802532 0.023809362 -0.23605703

h2h.weight f4 [150, 150]
000000 47 93 bb 3c 6a ef 95 bc 2b c1 e3 bc 4f af 1a bc
       0.022897376 -0.018302638 -0.02780207 -0.009441211
000010 71 60 57 3d f7 62 b3 bb 81 83 1a bd eb 09 8f 3d
       0.052582208 -0.005474444 -0.03772307 0.069843136
000020 32 93 2f 3c cf 04 2e ba 04 d3 64 bb 46 b5 3f 3d
       0.010716246 -0.000663829 -0.0034915814 0.046803735
000030 4a 25 a7 bc e7 cd 37 3d 50 f8 89 3d 7d 4d 3d bc
       -0.020403523 0.0448741 0.06736815 -0.011554119
000040 1d f9 99 3c 6a 1a 96 3c 4f 6e ca 3c ba dd 2a bc
       0.018795544 0.018323142 0.024710802 -0.01042884
000050 58 5c da bc 46 42 88 bc 49 bd f9 bc 3d 6d c2 3c
       -0.026655361 -0.016633164 -0.030485766 0.02373373
000060 1c 33 00 3d 9c b5 9b 3d 24 22 86 3c c9 6e 0b ba
       0.03129874 0.076029986 0.016373701 -0.00053189375
000070 25 68 1b bb 75 57 05 3d cb 98 cb 3c 36 b5 91 bb
       -0.0023713198 0.03255411 0.02485313 -0.004446651
000080 c3 ad 39 bc 0e 6a c7 3c 01 cb cb ba 41 f1 00 bd
       -0.011332932 0.024342563 -0.0015548171 -0.031480078
000090 1a a8 ac bc 03 4a a2 3c 9b 8b 9e 3c ff 08 8f bc
       -0.02107625 0.019810682 0.019353678 -0.017460344
0000a0 3b 8c 1d bc 6a ee b5 bc 52 ae 6f bc 3e 16 8e 3d
       -0.009615953 -0.022208411 -0.014628964 0.06937836
0000b0 3c 3d 23 bd 75 cf 25 3d 2c f6 24 bd 19 21 af bc
       -0.03985332 0.04048105 -0.04027383 -0.021378087
0000c0 e3 7f 15 bc fd 2c 03 3d 05 73 ee bb a8 cb a7 bc
       -0.009124729 0.032025326 -0.007276895 -0.020482853
0000d0 a3 ba a3 bc b3 44 df bc 48 1c 00 bd 35 b2 e4 bc
       -0.019986456 -0.027254438 -0.03127697 -0.027917007
0000e0 fb f7 8c bb 9d f4 ac bc c0 a0 18 bd 9d c3 2b 3d
       -0.0043020225 -0.021112734 -0.03726268 0.0419346
0000f0 55 56 16 3d 76 6c df 3c 70 90 36 bd d8 b4 2e bd
       0.036703426 0.027273398 -0.04457134 -0.042652935
000100 ee 43 02 bd 74 60 c1 bc 7f f0 ce b8 49 8f c2 3c
       -0.031803064 -0.023605563 -9.867641e-05 0.023749964
000110 86 fb 18 3d a2 dc 1d bd 99 1c 04 3d 76 48 d4 bc
       0.037349246 -0.03854049 0.032253835 -0.025913458
000120 ce c1 34 bb 35 78 74 3c 20 85 02 3d 18 11 00 3d
       -0.0027581337 0.014921238 0.03186524 0.031266302
000130 5b a1 12 bb e3 c6 d3 3c f2 d2 aa 3c 7f f2 03 3d
       -0.0022374007 0.025851673 0.02085254 0.032213684
000140 37 53 37 bb 2d 52 c2 bc 15 fe 2f 3d f1 07 ab 3a
       -0.0027973184 -0.023720825 0.04296692 0.0013048631
000150 ea f0 1e 3d 74 61 a2 bb be 7c 93 3d ea 48 d6 bc
       0.038803972 -0.004955465 0.07201527 -0.026157815
000160 9a 3f ed 3b 8f eb 08 bd c8 6f 44 3d 3a 80 93 3c
       0.007240248 -0.03342777 0.047958165 0.01800548
000170 76 af e5 3c 0f 0f 1e bd 21 93 36 bd c1 c9 f7 3c
       0.028037768 -0.03858858 -0.044573907 0.030247571
000180 0d 05 97 bc 51 9d f2 3a 2c c8 d9 bc c8 f3 62 bc
       -0.018435026 0.0018510019 -0.026584707 -0.013852067
000190 88 ce ab bb 52 97 5e 3d b6 f5 3a 3d 81 28 83 bb
       -0.0052431263 0.05434353 0.045644484 -0.004002631
0001a0 ca a7 4f bc 93 b6 4b ba 30 f4 23 3d ac 8f 1b bd
       -0.012674281 -0.0007771041 0.040027797 -0.037978813
0001b0 74 54 60 bc 0d ee 30 bd b9 89 68 3c f0 ac ad bb
       -0.01369201 -0.043195773 0.014192992 -0.005300157
0001c0 2c ec 45 3d b5 03 09 3d 57 ee 1c bd 32 74 a2 bc
       0.048320934 0.0334508 -0.038313236 -0.019830797
0001d0 35 0b ec bb 72 44 ea b9 55 95 27 bc 20 cc e6 bc
       -0.0072034844 -0.00044682954 -0.010228475 -0.028173506
0001e0 73 d6 8d bd c3 40 97 bb be 05 02 3e d0 19 3b bd
       -0.069256686 -0.0046158745 0.12697503 -0.045678914
0001f0 94 cb d7 3d e5 5c 14 be 13 d6 a7 bb 50 3a 0f be
       0.10536876 -0.14488561 -0.005121955 -0.13987088
000200 d0 39 2c be ba d7 1b 3c 8f 14 a8 bd bc a7 d7 3d
       -0.16818929 0.009511882 -0.08207046 0.1053004
000210 27 30 d9 3d fb ad 36 be 61 a7 4c bc c6 d7 fa bc
       0.106048875 -0.17839806 -0.012491078 -0.030620467
000220 6c 39 d1 bd b9 22 00 be a0 56 9b bd 56 b8 61 3d
       -0.102160305 -0.12513246 -0.07584882 0.055107437
000230 55 61 a5 3c 79 3c 39 3e ad 23 2f bc ae b9 97 3d
       0.020188013 0.18089475 -0.010689658 0.074084625
000240 c9 af f1 3c 6f 16 20 bd 15 ad 2b bc 30 ed 26 be
       0.029502766 -0.039083894 -0.010478278 -0.16301417
000250 25 e1 86 bb 27 2e 71 bd 0e b0 75 bc 66 6f 93 bc
       -0.004116195 -0.058881905 -0.014995588 -0.017997455
000260 bc 82 20 bc 7d 80 07 bd fa 59 e1 bb 80 b0 ee ba
       -0.0097967945 -0.03308152 -0.006877181 -0.001821056
000270 95 5b 41 bc 96 75 cb 3c bf cb 4a 3c d9 a3 26 3b
       -0.01180162 0.024836343 0.012377678 0.002542725
000280 c6 33 87 bc cf ff 52 bb 46 91 fc bc 00 96 95 3c
       -0.01650418 -0.003219593 -0.03083099 0.018260002
000290 76 4c eb 3c 48 39 db bb bc b7 92 3c 52 73 02 3d
       0.028722983 -0.006690178 0.017909877 0.03184826
0002a0 94 72 30 bb 09 4e 88 bc fa b8 99 bb aa 0a 7c bb
       -0.0026923763 -0.016638773 -0.0046912404 -0.0038458505
0002b0 5d e5 29 bd e4 30 37 bb ff b8 84 bc 95 b3 84 3c
       -0.041478503 -0.0027952725 -0.016201494 0.016198913
0002c0 44 98 a8 ba 3b 5a 87 3c f7 e4 eb 3c 63 14 66 bc
       -0.0012862762 0.016522517 0.028795702 -0.0140429465
0002d0 97 28 c5 b7 59 34 7b bb bf f8 9f bc d2 a0 cb bc
       -2.3503131e-05 -0.0038330762 -0.019527791 -0.024856959
0002e0 3c e5 f2 bb 46 d2 c7 3a 88 1f 01 bc 51 9a ab bb
       -0.007412581 0.0015245161 -0.007881053 -0.005236902
0002f0 0b d4 c0 3c ae 1d b4 3b b4 32 19 3c 74 4c 3f 3a
       0.02353861 0.005496702 0.0093504675 0.0007297464
000300 d2 16 0d bd 2c 15 de bc 94 1b 08 bd c3 27 8f 3c
       -0.03444559 -0.027109705 -0.033229426 0.017475015
000310 88 a7 21 bd 89 06 09 bd df 59 83 3c 38 8d 72 3c
       -0.03946641 -0.033453498 0.016034065 0.014804177
000320 75 80 2d bd 0b dc a3 3c 60 84 27 bc 0f 56 37 bb
       -0.042358834 0.020002386 -0.010224432 -0.002797488
000330 f3 f2 e5 bc 68 e3 de bb c1 a9 60 3b 81 de e5 3c
       -0.028069949 -0.0068020113 0.0034280869 0.0280602
000340 b0 23 4c 3c b3 9b c7 bc 5c c7 f0 bc 14 b4 32 bb
       0.01245968 -0.024366235 -0.029391937 -0.002726798
000350 3c 61 08 3c a6 fe 6a 3c 65 e5 36 bd 37 f9 6f bb
       0.008323964 0.0143429395 -0.04465236 -0.003661705
000360 49 00 b9 bb 62 6e ab bc be f9 bf 3c 49 e1 42 bc
       -0.005645786 -0.020926658 0.023434516 -0.0118945325
000370 0c fc 2e bd 35 2c db bc ab 89 d8 bb 4f 95 08 bd
       -0.04272084 -0.026754478 -0.006608208 -0.033345517
000380 b4 ed 77 bb 97 a3 03 3d 30 58 d6 bb 7c dc 34 bc
       -0.003783089 0.032138433 -0.0065412745 -0.011038896
000390 c6 03 f7 3c 1a 50 bc 3c 77 a7 a6 3c 81 f0 ff bb
       0.030153167 0.022987414 0.020343525 -0.0078106527
0003a0 06 ef e6 bb ae 56 0e bd 3b af c4 bb 6f 01 2c 3d
       -0.007047537 -0.034750633 -0.0060023344 0.041993555
0003b0 08 3c 00 bc 59 c9 23 bd 3a 94 1f 3c 27 1f f3 3c
       -0.007826813 -0.039986942 0.00973993 0.02967794
0003c0 0d 7c d6 3c 0b c8 d9 bb 01 9e 03 ba c8 6e 8a bb
       0.026182199 -0.0066461614 -0.0005020798 -0.004224632
0003d0 62 72 96 bc d6 3d d6 bb 9f b5 e2 3c 00 c3 87 bb
       -0.018365089 -0.006538133 0.027674494 -0.004143119
0003e0 80 42 e8 3c 50 c3 f3 bc 9b 96 d6 bb e9 f7 b2 bb
       0.028352022 -0.029756218 -0.0065487153 -0.005461682
0003f0 c0 78 da bc 1a b9 ba 3c 5f f1 8f 3c 74 00 c6 bc
       -0.026668906 0.022793341 0.01757115 -0.024170138

h2h.bias f4 [150]
000000 e5 3f 51 bd ae db bc bc 20 a7 3b bc 3f 0a 5c bd
       -0.051086325 -0.02305397 -0.01145342 -0.05372071
000010 96 88 5d bd 8f 20 39 bd 2f 89 7e bd 4d fa 37 bd
       -0.054085337 -0.045197066 -0.062142547 -0.04491644
000020 60 c9 25 bd c4 de 2d bd e9 1a 0f bd 4f cc 91 bd
       -0.04047525 -0.042448774 -0.034937773 -0.07119047
000030 fd 7a 86 bd b8 92 15 bd de 9b 68 bd 5b b9 22 bd
       -0.06566427 -0.036516875 -0.05678927 -0.03972755
000040 e0 cd 5c bd f3 d6 06 bc 2f 06 ab bc e6 38 83 bd
       -0.053907275 -0.008229959 -0.020876972 -0.06407337
000050 ca 35 3e bd 14 7f 1b bd 8e 14 82 bd 78 59 52 bd
       -0.046438016 -0.037962988 -0.06351577 -0.051354855
000060 32 39 34 bd de c5 71 bd 72 a6 b7 bc 77 1a 20 bd
       -0.04399986 -0.05902659 -0.022418234 -0.03908774
000070 2b c4 3e bd c0 50 69 bd 5c 9e b9 bc d6 10 4d bd
       -0.0465738 -0.056961775 -0.02265852 -0.050064884
000080 66 13 f0 bc 1c 6e ca bc 81 77 6b bd 6f 9b 11 bd
       -0.029306125 -0.024710707 -0.057487015 -0.035548624
000090 9b 9b 40 bd 0b 9d 60 bc 86 c8 2f bd 8d a2 5d bd
       -0.047023397 -0.013709317 -0.042915843 -0.0541101
0000a0 c3 21 90 bc 02 cc 54 bd 61 71 3f bd a1 3c 2e bd
       -0.017594224 -0.05195237 -0.046738986 -0.04253829
0000b0 ab e9 25 bd cf 52 0e bd ce da 45 bd dd dc 1c bd
       -0.040506046 -0.03474694 -0.04830437 -0.03829657
0000c0 f2 40 51 bd b6 2f 6a bd 7e 8f 6d bd f8 a9 1c bd
       -0.051087327 -0.057174407 -0.057998173 -0.038248032
0000d0 d4 53 77 bd d9 bc 45 bd a4 f8 41 bd 9e e1 2b bd
       -0.06038268 -0.048275802 -0.047356263 -0.041963212
0000e0 e4 50 8f 3d e6 df f6 bc 83 08 b8 bc 45 08 02 bd
       0.069978505 -0.03013606 -0.022464996 -0.031746168
0000f0 ed 83 4f bd fc a0 5b bd 59 23 80 bc 66 14 56 3c
       -0.050662924 -0.053620324 -0.015641855 0.013066387
000100 f4 78 22 bd 2c c8 1d bd b4 8b 90 bd 31 b3 e1 bc
       -0.03966613 -0.038520977 -0.07057896 -0.027551265
000110 ac b7 69 bd 36 4c 61 bd 4f d9 d3 bb e8 c8 64 bd
       -0.05705993 -0.05500432 -0.006465114 -0.05585566
000120 9b 72 88 bc 7d b7 50 bd 10 0d da bc 84 0a 81 bd
       -0.01665621 -0.050956238 -0.026617557 -0.06300834
000130 db 2e 1f bc a0 7e 3e bd 25 bb 17 bd 06 fe 73 bc
       -0.009715761 -0.046507478 -0.03704371 -0.014892107
000140 c6 55 51 bd 5e f0 62 bd c6 0e 4a bd a5 1c 85 bd
       -0.05110719 -0.055405013 -0.049330495 -0.06499604
000150 9c f8 72 bd 82 15 fd bc 64 e3 c9 bc 1d 5b 95 bc
       -0.059319124 -0.030894045 -0.024644561 -0.018231923
000160 de 56 49 bd 8f 60 74 bd 24 a6 3c bd e7 7f 06 bd
       -0.04915511 -0.059662398 -0.04605688 -0.03283682
000170 af bd 12 bd 0b 81 a4 bc 60 de bd bc 09 02 da bc
       -0.035825428 -0.020081064 -0.023177326 -0.026612299
000180 07 d5 fe bc b9 c5 6d bc 21 af 64 bd 44 4f 44 bd
       -0.031107439 -0.014512473 -0.05583108 -0.047927156
000190 ed 03 8e bc 9c 3e 73 bd 15 e3 28 bd 51 89 58 bd
       -0.017335856 -0.05938588 -0.041232187 -0.05286533
0001a0 e1 58 46 bd 46 47 2c bd ec ae cd bc cc ff 61 bd
       -0.048424605 -0.04206016 -0.025107823 -0.055175588
0001b0 06 87 c5 bc a7 bf 3b bd 11 fe 48 bd 9f 1b c4 bc
       -0.024112236 -0.04583707 -0.04907042 -0.023938952
0001c0 68 60 64 bd 07 ec 0d bb 93 1f 13 bd 00 3b 16 bd
       -0.055756003 -0.0021655576 -0.035918783 -0.03667736
0001d0 16 fd 8d bd bb 1f 4f bd 69 b2 89 bc d4 d3 3c bd
       -0.06933038 -0.05056737 -0.016808705 -0.046100453
0001e0 d9 99 40 3d f2 4b 86 3d 8c e2 42 3d ca a7 f2 3c
       0.04702172 0.06557454 0.047579333 0.029621024
0001f0 e4 05 0b 3d dd f4 40 3d 49 84 2e 3d 66 2e 7e 3d
       0.033941165 0.04710852 0.042606626 0.062055968
000200 3e 6a 91 3d 9f 35 53 3d d7 c8 44 3d 43 5e 19 3d
       0.07100342 0.05156481 0.0480431 0.03744341
000210 b8 e6 30 3d 13 38 05 3d 72 1b 69 3d 72 26 20 3d
       0.04318878 0.03252418 0.05691094 0.039099164
000220 65 92 4e 3d 24 db 97 3d 8a c5 42 3d 07 48 a7 3c
       0.05043258 0.07414845 0.04755167 0.020420088
000230 ec c2 39 3d e6 9b 9a 3d 88 15 2c 3d 30 e7 60 3d
       0.045351908 0.075492665 0.04201272 0.054907978
000240 f0 2c 48 3d 9c c8 6e 3d a7 60 6f 3d 7d 07 52 3d
       0.04887098 0.058296785 0.058441784 0.051276673
000250 ff 6e 7e 3b 37 a1 85 3d
       0.0038823483 0.0652489

h2o.weight f4 [1, 150]
000000 8e be 0c 3e 05 7b 36 bc e8 04 b7 bc 0c 4e fa 3d
       0.13744566 -0.011137729 -0.022341207 0.122219175
000010 f9 34 08 3e ee 07 62 bc b7 cb 00 3e 89 95 0c 3e
       0.13301457 -0.013795836 0.12577711 0.13728918
000020 72 81 19 3e 82 c2 12 3e 92 c2 a4 bc b8 1c 71 bc
       0.14990786 0.14332011 -0.02011231 -0.01471632
000030 20 ec fb 3d 49 0e 0c 3e aa 76 cc 3d a6 d7 fb 3d
       0.12300897 0.13677324 0.09983571 0.12296991
000040 df fc 63 bc ca f8 1b 3e 0d ae 20 3e d7 85 83 bc
       -0.01391527 0.15231624 0.15691395 -0.01605503
000050 c3 8b 8d bb 93 8a 0b 3e 4e 17 8c bb 2e 6d f0 3d
       -0.0043196394 0.1362708 -0.004275239 0.117395744
000060 90 41 c7 bb 80 a6 c9 bb c7 aa 15 3e ed e2 5e bc
       -0.0060808137 -0.0061538815 0.14615928 -0.013603908
000070 77 7f 77 bc 44 20 b4 bc 89 cf 10 3e f2 20 3f bc
       -0.015106074 -0.021988042 0.14141668 -0.01166557
000080 36 4c 1d 3e 44 2e 81 bb ad 47 b4 bc 8f 78 c8 bc
       0.15361103 -0.003942283 -0.022006834 -0.02447155
000090 57 88 84 bc 59 93 dc 3b 3e 0e b0 bb 49 c1 c7 bb
       -0.016178293 0.0067314324 -0.0053727916 -0.0060960394
0000a0 d3 87 0a 3e b8 06 01 3e ef 89 03 3e 7e 79 08 3e
       0.13528375 0.12600219 0.12845586 0.13327596
0000b0 cf fc d0 3d 47 ab 14 3e de 8d 09 3e 7e b0 c4 bc
       0.102044694 0.14518462 0.13433024 -0.02400994
0000c0 f3 71 07 3e 66 1e f9 3d 1d 44 08 3e 84 11 ec bb
       0.13227062 0.12164001 0.13307233 -0.0072042365
0000d0 2b a1 c2 bb 72 73 93 ba cc 3f 01 3e 88 54 49 bc
       -0.005939623 -0.0011249615 0.12621993 -0.01228822
0000e0 69 b2 d4 bc 97 8a 1d 3e c0 f8 16 3e fe 44 17 3e
       -0.025963979 0.15384899 0.14743328 0.14772412
0000f0 c3 e2 b5 bb 9a ae b8 bc cc d8 26 bc b8 7c 2b 3e
       -0.0055507137 -0.022544194 -0.010183524 0.16746795
000100 b8 3b fa 3d 9b be 0d 3e 19 99 b9 bc be 37 14 3e
       0.12218422 0.13842241 -0.02265601 0.14474389
000110 cb b3 06 3e a6 07 08 3e ab 6b 30 3e 75 06 06 3e
       0.13154523 0.13284168 0.17228572 0.130884
000120 e6 83 b0 bc e5 6d d3 bc 4a d3 0d 3e a7 ea 82 bc
       -0.02154727 -0.025809238 0.13850132 -0.015981032
000130 bf 40 2c 3e 2a 09 e8 bb bf 30 04 3e 22 e7 20 3e
       0.16821574 -0.0070811706 0.1290922 0.1571317
000140 39 81 b6 bc 95 e9 02 3e 99 85 ad bc 84 6e d8 bc
       -0.022278415 0.12784417 -0.021181868 -0.026419885
000150 00 2c 30 bc 4b 6c 1e bc 3c e8 13 3e eb 00 23 3e
       -0.010752678 -0.009669374 0.14444059 0.15918319
000160 2b 67 be bc 0d 4d 93 bc 54 e2 13 3e 8b f3 0d 3e
       -0.023242554 -0.017981077 0.14441806 0.13862436
000170 4e 36 08 3e 46 4a 17 3e 58 b0 16 3e 16 91 19 3e
       0.13301966 0.14774427 0.14715707 0.14996752
000180 02 3b 0c 3e c7 a7 e4 bb d5 4d aa bc 1a 0a d8 bc
       0.13694385 -0.0069780084 -0.020789066 -0.026372004
000190 d0 53 dc 3b b9 5b f6 3d 8c 6e 0e 3e 59 82 0a 3e
       0.0067238584 0.120292135 0.13909358 0.13526286
0001a0 5e de 2a bc ce d3 08 3e 4e a3 0c 3e 66 54 03 3e
       -0.010428993 0.13362047 0.13734171 0.12825164
0001b0 3b 06 1b 3e da b6 58 bc 55 d3 06 3e 96 ca 23 3e
       0.15139095 -0.013227189 0.13166554 0.15995249
0001c0 75 36 af bc 0e 98 20 3e 91 e1 15 3e 3d 75 55 bc
       -0.021388272 0.15683004 0.14636828 -0.01302844
0001d0 4d e2 c5 bb 54 9f 67 bb c6 0b 0e 3e 7c 1d 1d 3e
       -0.00603894 -0.003534277 0.13871679 0.15343279
0001e0 51 93 a8 bd 3d a3 38 bc a1 a1 ce bb 73 c1 12 3b
       -0.082312234 -0.011269388 -0.0063058888 0.0022393137
0001f0 7f 44 82 bd 50 c8 d0 3d 8f 5e 47 3d bf 86 a1 3d
       -0.06360721 0.101944566 0.048674162 0.07887029
000200 e6 4e 92 3d e8 20 8a bc 7b ac d5 3d 6f 9e 40 bd
       0.07143955 -0.016861394 0.10433289 -0.047026094
000210 22 6f 69 3d e1 9a af bd dd 78 7a 3d 09 2b 69 3d
       0.05699075 -0.08574463 0.06115042 0.056925807
000220 6a 5c d7 3d 43 b5 c3 3d 01 03 8d bd 98 04 da bb
       0.105156735 0.09556057 -0.068853386 -0.0066533796
000230 a2 fd c6 3d c9 cd ad bc 47 71 a3 bd 0b 0d 13 bd
       0.09716345 -0.02121629 -0.0798059 -0.03590111
000240 69 39 c0 3d cb b8 9b 3b 55 e5 be 3c e0 9f 13 bd
       0.0938595 0.0047522536 0.023302713 -0.03604114
000250 fc 57 21 3d 5d 82 83 3c
       0.03939055 0.016053373

attn_func.weight f4 [3, 150]
000000 bb 51 d9 bc c7 88 fe 3c a2 6e 04 3b f3 20 52 3d
       -0.02652823 0.03107108 0.0020207544 0.051300954
000010 76 40 0d bc a0 71 29 bc 7e cd 94 ba ea ae 61 3d
       -0.008621326 -0.010342032 -0.0011352745 0.05509845
000020 2d 8a a3 bc 94 48 74 bc 40 8f ba 3c 7c 8e 9f bc
       -0.019963348 -0.014909882 0.022773385 -0.019477122
000030 ea ff b1 bc 77 a6 05 bc 6f e2 50 bc 7d 40 52 3d
       -0.021728475 -0.008157364 -0.0127492985 0.051331032
000040 9e b4 7f b9 09 e7 bd ba 8e 28 73 3c 2b d9 1c bc
       -0.0002438598 -0.001448841 0.014841212 -0.009573261
000050 27 93 02 3d f6 f7 4b 3d 7f 7f 92 bc f9 c7 57 bc
       0.031878617 0.04979702 -0.01788306 -0.013170236
000060 ce e6 fd 3c 66 88 ce b8 ad f0 0c 3d 6d 1a cd bc
       0.030993845 -9.848252e-05 0.034409214 -0.025037015
000070 d6 2d 21 bc 6c bd 13 3d 3c 01 8c 3c 75 c5 c7 bc
       -0.009837588 0.03606932 0.017090432 -0.024386147
000080 b3 40 1f 3d ce 6a 2d bc 91 60 38 bc 2a 98 68 bc
       0.03888006 -0.010584546 -0.011253492 -0.014196435
000090 64 13 bb bc a4 10 a0 bc 36 05 3a 3c 06 62 ca 3c
       -0.022836395 -0.019539185 0.011353781 0.024704944
0000a0 0e 67 58 3d af bc 32 3d 81 c6 35 3d 65 54 4e 3d
       0.052832656 0.043636974 0.04437876 0.050373454
0000b0 3f 82 09 3d 2c 18 02 bb 10 f1 09 3d b9 6b 88 bc
       0.033571478 -0.0019850833 0.03367716 -0.016652929
0000c0 ba ac 94 bb 9b 6d c7 bc 2b 1b 3a bc 86 80 22 bc
       -0.004537192 -0.024344256 -0.011359016 -0.009918338
0000d0 f9 7e 30 bc 08 04 af 3c cb 00 99 bb ac dc c6 3c
       -0.01077246 0.021364227 -0.004669284 0.024275146
0000e0 4e ee 78 bb ca 55 2b 3d 1e 09 58 ba dc 8e 29 3d
       -0.0037983838 0.04182986 -0.00082411047 0.041396007
0000f0 7d 35 0a 3d 11 d2 15 3d 03 21 e9 bb 9d 90 3e bc
       0.033742417 0.036577288 -0.007114531 -0.011631158
000100 93 b1 31 ba 1e ca 2e 3d 4c f2 ba 3c 40 ea 00 3d
       -0.0006778475 0.042673223 0.022820614 0.0314734
000110 f9 41 f5 bb 44 d0 fe 3c 33 ad 46 3d 59 28 9c bc
       -0.007484671 0.031105168 0.04850502 -0.019062208
000120 fb 20 b6 bc 33 2f c4 3c 49 08 d2 bc 3c bf 94 bc
       -0.022232523 0.023948288 -0.025638716 -0.018157594
000130 5f a9 e0 bb 05 18 50 3c 0e 16 af bc 4e 49 b9 3c
       -0.006856128 0.012701039 -0.021372821 0.022617962
000140 dd 61 31 bc 93 c3 23 3d e3 79 75 ba 2d 21 ab bc
       -0.010826555 0.039981436 -0.0009364171 -0.020889843
000150 6c c5 11 bc 23 66 d1 bc 34 91 3c 3d d1 48 24 bb
       -0.008897167 -0.025561398 0.046036914 -0.0025067816
000160 8f 11 57 3d ab d9 e3 3c 21 e4 61 3d 98 69 3c 3d
       0.05250698 0.027813753 0.0551492 0.04599914
000170 c4 62 b3 3c a3 ee 25 3d c4 6b 22 3d d9 49 f1 3c
       0.021897681 0.040510785 0.039653555 0.029454159
000180 42 57 f1 3c 49 ef 9c bc a6 f5 11 3d 8d fe ef bb
       0.029460553 -0.019157069 0.03563466 -0.007324046
000190 4d 3c ab 3b 9b 2d e4 bb 59 7f da bb c3 7a 5b bc
       0.0052256943 -0.0069634444 -0.006668013 -0.013395968
0001a0 44 7b b4 3c 70 9a 9e ba f2 d9 37 3d cf ba 62 bc
       0.022031434 -0.0012100469 0.044885583 -0.013838484
0001b0 21 67 14 3d c9 ca cb 3c 1a 34 ea 3c 04 75 53 ba
       0.036231164 0.024876969 0.028589297 -0.0008066448
0001c0 b5 12 76 bc 4e 99 ab bc 51 1f 5e bc 44 a8 c6 3c
       -0.015019109 -0.020947125 -0.013557271 0.024250157
0001d0 22 04 a6 3c e5 42 6f bc ca 2e c6 bb 30 83 01 bc
       0.020265643 -0.014603351 -0.006048058 -0.007904813
0001e0 95 4c c5 bc 5f 70 91 bd 20 2c cf 3c 45 95 01 bc
       -0.024084369 -0.07101511 0.025289595 -0.007909124
0001f0 25 cc 1b 3d 1b 51 87 3d 1b 23 aa bd 94 2f d1 bd
       0.038036484 0.066072665 -0.08307477 -0.10214153
000200 e0 cd c0 bd 47 c5 e1 3c 36 49 cb 3d 60 c5 1a 3a
       -0.094142675 0.02755989 0.09926073 0.0005904045
000210 ba f6 b2 3c 0e 7e 59 3c 67 d3 82 3d c3 c8 03 3c
       0.021846164 0.013274683 0.06387978 0.008043471
000220 e9 d9 b1 bd be 37 70 bd 82 30 c3 bd 35 12 2a bd
       -0.08684141 -0.05864691 -0.095307365 -0.04152127
000230 a5 78 19 bd 84 00 7a 3d 9a 40 a9 3d 18 05 5c bc
       -0.03746857 0.061035648 0.08264275 -0.013428949
000240 ca 5d 93 bd af fa 8e 3d e7 db 09 3d 4c 36 91 3d
       -0.07195623 0.06981408 0.03365698 0.070904344
000250 8d b5 1a 3d 2b 23 0d bd 6d f4 b8 bb ec aa 8f bc
       0.037770797 -0.034457367 -0.005644372 -0.017537557
000260 d4 2f a1 bc d1 2a 9a bb 42 84 bf bb 9a 26 ca bb
       -0.019676127 -0.004704811 -0.005844624 -0.0061691524
000270 05 9b cc bb 99 aa 70 bb 25 54 8a bb 1d 16 5d bc
       -0.0062440657 -0.0036722778 -0.0042214566 -0.013494042
000280 c1 ce b2 bb 94 8e 96 bc b8 1c 4e bc 6f 43 f4 b8
       -0.005456776 -0.018378533 -0.012580089 -0.00011647387
000290 7a 33 d0 bc 87 97 ce bb 49 2d ca bb 22 0c ac bc
       -0.025415171 -0.0063046846 -0.006169949 -0.02100188
0002a0 1b 99 8d bc 84 0b 79 3b d3 de c0 bc a0 d9 5f 3c
       -0.01728492 0.0038001249 -0.02354375 0.013662726
0002b0 c2 61 57 bb 6a 3c 21 bb 58 92 b7 bc f1 d5 a5 bc
       -0.0032864665 -0.002460266 -0.02240865 -0.020243617
0002c0 1f c3 aa bc ff 76 01 3b 3b a4 be ba a9 76 b3 bb
       -0.020844994 0.0019754765 -0.0014544794 -0.005476792
0002d0 72 b8 3f 3c cc 35 3c 3c 48 58 8e bc ce 65 df ba
       0.01170169 0.011487436 -0.01737608 -0.001704389
0002e0 1e cd 19 bb e8 93 e0 bb 0c c1 16 bc 74 c6 90 bc
       -0.0023468207 -0.0068535693 -0.009201299 -0.017672755
0002f0 2d 83 ac bc e4 56 d5 bb 82 cc 4a bb 8b 82 c7 bb
       -0.021058643 -0.0065106023 -0.003094465 -0.00608856
000300 91 2a b0 bc 35 b2 f8 bb cd c6 29 bc 38 4a ba bb
       -0.021504672 -0.0075896033 -0.010362339 -0.005685117
000310 c9 8f d6 bb 86 40 d4 bc 4b ee e4 bb 43 c9 bf bb
       -0.0065479022 -0.025909673 -0.0069864145 -0.0058528497
000320 dc 7b 97 bc dd f6 7e bc f8 e5 96 bb d9 88 16 bc
       -0.018491678 -0.0155617865 -0.004605051 -0.0091879
000330 a1 23 6d bc 4d 23 b2 bc c7 69 83 bb d2 25 cc bb
       -0.014473827 -0.021745348 -0.0040104124 -0.0062300945
000340 0a 25 8d bc e0 87 96 3c cc 55 78 ba 90 92 c2 ba
       -0.017229576 0.018375337 -0.0009473234 -0.0014844704
000350 7c 1c 9c 3c e5 66 04 3d df 25 91 bc 02 25 38 bb
       0.019056551 0.03232469 -0.017718254 -0.002809823
000360 43 78 d6 bc 3b 35 a2 bc ef 37 b4 bc a4 08 fa ba
       -0.026180392 -0.019800773 -0.021999327 -0.0019076061
000370 0f 65 a6 ba 3f 61 8b bb ff 5a 2a bb c3 6d c6 ba
       -0.0012694913 -0.004253536 -0.002599418 -0.0015138913
000380 dc 7f 8c bb c1 a4 a1 bc ef 14 5a bb d0 ea 17 3c
       -0.004287703 -0.019731881 -0.0033276638 0.009272292
000390 c0 99 04 bb ea 24 23 bb e2 65 bf bb ae 7f 85 bb
       -0.0020233244 -0.0024893829 -0.005841003 -0.0040740585
0003a0 92 27 e5 bb 40 90 bb bc e1 20 07 3b f0 7a 16 3c
       -0.0069932425 -0.022895932 0.0020618963 0.009184584
0003b0 26 52 a0 bc e3 47 b4 bb b5 e2 ec bb 41 e0 f5 bb
       -0.019570421 -0.0055017336 -0.007229174 -0.00750354
0003c0 67 56 11 bb a5 c5 0b bc 23 f2 a2 3c 5f 8f 1e bc
       -0.0022176744 -0.008531009 0.01989085 -0.009677737
0003d0 42 eb 85 3c eb 31 83 3c 25 c5 d6 bc 1b 31 02 3d
       0.016347531 0.016015014 -0.026217053 0.031785112
0003e0 de 45 5c bb 77 27 98 bb e3 d0 a2 bc 8d e3 e6 bb
       -0.003361098 -0.0046433765 -0.019874996 -0.007046169
0003f0 0d 5a e7 bb 53 fc 27 bc 54 50 9d bc 0d 5a e9 bb
       -0.0070602954 -0.01025303 -0.019203342 -0.0071213306

attn_func.bias f4 [3]
000000 a8 85 18 3d f8 02 1f bd 4f ec 62 3c
       0.03723684 -0.03882119 0.013850286
